@charset "UTF-8";
/**
 * ej2 styles
 */
@import url("https://fonts.googleapis.com/css?family=Roboto:400,500");
@font-face {
  font-family: "e-icons";
  font-style: normal;
  font-weight: normal;
  src: url("data:application/x-font-ttf;charset=utf-8;base64,…") format("truetype");
}

.e-icons {
  font-family: "e-icons";
  font-style: normal;
  font-variant: normal;
  font-weight: normal;
  line-height: 1;
  speak: none;
  text-transform: none;
}

/*! common core */
.e-control,
.e-css {
  font-family: "Roboto", "Segoe UI", "GeezaPro", "DejaVu Serif", "sans-serif", "-apple-system", "BlinkMacSystemFont";
  font-size: 12px;
  font-weight: normal;
}

.e-error {
  color: #f44336;
  font-family: "Roboto", "Segoe UI", "GeezaPro", "DejaVu Serif", "sans-serif", "-apple-system", "BlinkMacSystemFont";
  font-size: 12px;
  font-weight: normal;
}

.e-control,
.e-control [class^='e-'],
.e-control [class*=' e-'] {
  box-sizing: border-box;
}

.e-control:focus,
.e-control *:focus {
  outline: none;
}

.e-rtl {
  direction: rtl;
}

.e-overlay {
  background-color: #383838;
  filter: alpha(opacity=50);
  height: 100%;
  opacity: .5;
  pointer-events: none;
  -ms-touch-action: none;
      touch-action: none;
  width: 100%;
}

.e-hidden {
  display: none;
}

.e-disabled {
  background-image: none;
  cursor: default;
  filter: alpha(Opacity=35);
  opacity: .35;
}

.e-ul {
  list-style-type: none;
}

.e-prevent-select {
  -webkit-user-select: none;
     -moz-user-select: none;
      -ms-user-select: none;
          user-select: none;
}

.e-warning {
  color: #ffca1c;
}

.e-success {
  color: #22b24b;
}

.e-information {
  color: #489bd5;
}

.e-block-touch {
  -ms-touch-action: pinch-zoom;
      touch-action: pinch-zoom;
}

/*! animation keyframes */
@keyframes SlideLeftOut {
  from {
    transform: translate(0, 0);
  }
  to {
    transform: translate(-100%, 0);
  }
}

@keyframes SlideLeftIn {
  from {
    transform: translate(-100%, 0);
  }
  to {
    transform: translate(0, 0);
  }
}

@keyframes SlideRightIn {
  from {
    transform: translate(100%, 0);
  }
  to {
    transform: translate(0, 0);
  }
}

@keyframes SlideRightOut {
  from {
    transform: translate(0, 0);
  }
  to {
    transform: translate(100%, 0);
  }
}

@keyframes SlideBottomIn {
  from {
    transform: translate(0, 100%);
  }
  to {
    transform: translate(0, 0);
  }
}

@keyframes SlideBottomOut {
  from {
    transform: translate(0, 0);
  }
  to {
    transform: translate(0, 100%);
  }
}

@keyframes SlideTopIn {
  from {
    transform: translate(0, -100%);
  }
  to {
    transform: translate(0, 0);
  }
}

@keyframes SlideTopOut {
  from {
    transform: translate(0, 0);
  }
  to {
    transform: translate(0, -100%);
  }
}

@keyframes SlideRight {
  from {
    width: 0;
  }
  to {
    width: 100%;
  }
}

@keyframes SlideLeft {
  from {
    width: 100%;
  }
  to {
    width: 0;
  }
}

@keyframes SlideDown {
  from {
    height: 0;
  }
  to {
    height: 100%;
  }
}

@keyframes SlideUp {
  from {
    height: 100%;
  }
  to {
    height: 0;
  }
}

@keyframes FadeIn {
  0% {
    filter: alpha(opacity=0);
    opacity: 0;
  }
  100% {
    filter: alpha(opacity=100);
    opacity: 1;
  }
}

@keyframes FadeOut {
  from {
    filter: alpha(opacity=100);
    opacity: 1;
  }
  to {
    filter: alpha(opacity=0);
    opacity: 0;
  }
}

@keyframes ZoomIn {
  from {
    transform: translate(0, 0) scale(0);
  }
  to {
    transform: translate(0, 0) scale(1);
  }
}

@keyframes ZoomOut {
  from {
    transform: translate(0, 0) scale(1);
  }
  to {
    transform: translate(0, 0) scale(0);
  }
}

@keyframes FadeZoomIn {
  from {
    filter: alpha(opacity=0);
    opacity: 0;
    transform: scale(0);
  }
  to {
    filter: alpha(opacity=100);
    opacity: 1;
    transform: scale(1);
  }
}

@keyframes FadeZoomOut {
  from {
    filter: alpha(opacity=100);
    opacity: 1;
    transform: scale(1);
  }
  to {
    filter: alpha(opacity=0);
    opacity: 0;
    transform: scale(0);
  }
}

@keyframes FlipRightDownIn {
  from {
    transform: perspective(400px) rotateY(-180deg);
    transform-origin: right center;
    transform-style: preserve-3d;
  }
  to {
    transform: rotateY(0deg);
    transform-origin: right center;
    transform-style: preserve-3d;
  }
}

@keyframes FlipRightDownOut {
  from {
    transform: perspective(400px) rotateY(0deg);
    transform-origin: right center;
    transform-style: preserve-3d;
  }
  to {
    transform: rotateY(-180deg);
    transform-origin: right center;
    transform-style: preserve-3d;
  }
}

@keyframes FlipRightUpIn {
  from {
    transform: perspective(400px) rotateY(135deg);
    transform-origin: right center;
    transform-style: preserve-3d;
  }
  to {
    transform: rotateY(0deg);
    transform-origin: right center;
    transform-style: preserve-3d;
  }
}

@keyframes FlipRightUpOut {
  from {
    transform: perspective(400px) rotateY(0deg);
    transform-origin: right center;
    transform-style: preserve-3d;
  }
  to {
    transform: rotateY(135deg);
    transform-origin: right center;
    transform-style: preserve-3d;
  }
}

@keyframes FlipLeftDownIn {
  from {
    transform: perspective(400px) rotateY(-180deg);
    transform-origin: left center;
    transform-style: preserve-3d;
  }
  to {
    transform: rotateY(0deg);
    transform-origin: left center;
    transform-style: preserve-3d;
  }
}

@keyframes FlipLeftDownOut {
  from {
    transform: perspective(400px) rotateY(0deg);
    transform-origin: left center;
    transform-style: preserve-3d;
  }
  to {
    transform: rotateY(135deg);
    transform-origin: left center;
    transform-style: preserve-3d;
  }
}

@keyframes FlipLeftUpIn {
  from {
    transform: perspective(400px) rotateY(-135deg);
    transform-origin: left center;
    transform-style: preserve-3d;
  }
  to {
    transform: rotateY(0deg);
    transform-origin: left center;
    transform-style: preserve-3d;
  }
}

@keyframes FlipLeftUpOut {
  from {
    transform: perspective(400px) rotateY(0deg);
    transform-origin: left center;
    transform-style: preserve-3d;
  }
  to {
    transform: rotateY(135deg) perspective(200px);
    transform-origin: left center;
    transform-style: preserve-3d;
  }
}

@keyframes FlipYLeftIn {
  from {
    filter: alpha(opacity=0);
    opacity: 0;
    transform: perspective(400px) rotateY(180deg);
    transform-origin: center center;
    transform-style: preserve-3d;
  }
  50% {
    transform: perspective(700px) rotateY(90deg);
  }
  to {
    filter: alpha(opacity=100);
    opacity: 1;
    transform: rotateY(0deg);
    transform-origin: center center;
    transform-style: preserve-3d;
  }
}

@keyframes FlipYLeftOut {
  from {
    filter: alpha(opacity=100);
    opacity: 1;
    transform: perspective(400px) rotateY(0deg);
    transform-origin: center center;
    transform-style: preserve-3d;
  }
  50% {
    transform: perspective(700px) rotateY(90deg);
  }
  75% {
    transform: perspective(850px) rotateY(125deg);
  }
  to {
    filter: alpha(opacity=0);
    opacity: 0;
    transform: rotateY(180deg);
    transform-origin: center center;
    transform-style: preserve-3d;
  }
}

@keyframes FlipYRightIn {
  from {
    filter: alpha(opacity=0);
    opacity: 0;
    transform: perspective(400px) rotateY(-180deg);
    transform-origin: center center;
    transform-style: preserve-3d;
  }
  50% {
    transform: perspective(700px) rotateY(-90deg);
  }
  to {
    filter: alpha(opacity=100);
    opacity: 1;
    transform: rotateY(0deg);
    transform-origin: center center;
    transform-style: preserve-3d;
  }
}

@keyframes FlipYRightOut {
  from {
    filter: alpha(opacity=100);
    opacity: 1;
    transform: perspective(400px) rotateY(0deg);
    transform-origin: center center;
    transform-style: preserve-3d;
  }
  50% {
    transform: perspective(700px) rotateY(-90deg);
  }
  to {
    filter: alpha(opacity=0);
    opacity: 0;
    transform: rotateY(-180deg);
    transform-origin: center center;
    transform-style: preserve-3d;
  }
}

@keyframes FlipXDownIn {
  from {
    filter: alpha(opacity=0);
    opacity: 0;
    transform: perspective(400px) rotateX(180deg);
    transform-origin: center center;
    transform-style: preserve-3d;
  }
  50% {
    transform: perspective(700px) rotateX(90deg);
  }
  to {
    filter: alpha(opacity=100);
    opacity: 1;
    transform: rotateX(0deg);
    transform-origin: center center;
    transform-style: preserve-3d;
  }
}

@keyframes FlipXDownOut {
  from {
    filter: alpha(opacity=100);
    opacity: 1;
    transform: perspective(400px) rotateX(0deg);
    transform-origin: center center;
    transform-style: preserve-3d;
  }
  50% {
    transform: perspective(700px) rotateX(90deg);
  }
  75% {
    transform: perspective(850px) rotateX(125deg);
  }
  to {
    filter: alpha(opacity=0);
    opacity: 0;
    transform: rotateX(180deg);
    transform-origin: center center;
    transform-style: preserve-3d;
  }
}

@keyframes FlipXUpIn {
  from {
    filter: alpha(opacity=0);
    opacity: 0;
    transform: perspective(400px) rotateX(-180deg);
    transform-origin: center center;
    transform-style: preserve-3d;
  }
  50% {
    transform: perspective(700px) rotateX(-90deg);
  }
  to {
    filter: alpha(opacity=100);
    opacity: 1;
    transform: rotateX(0deg);
    transform-origin: center center;
    transform-style: preserve-3d;
  }
}

@keyframes FlipXUpOut {
  from {
    filter: alpha(opacity=100);
    opacity: 1;
    transform: perspective(400px) rotateX(0deg);
    transform-origin: center center;
    transform-style: preserve-3d;
  }
  50% {
    transform: perspective(700px) rotateX(-90deg);
  }
  to {
    filter: alpha(opacity=0);
    opacity: 0;
    transform: rotateX(-180deg);
    transform-origin: center center;
    transform-style: preserve-3d;
  }
}

.e-ripple,
.e-ripple-style {
  overflow: hidden;
  position: relative;
  transform: translate3d(0, 0, 0);
}

.e-ripple-element,
.e-ripple-style::after {
  background-color: rgba(0, 0, 0, 0.1);
  border-radius: 100%;
  overflow: hidden;
  pointer-events: none;
  position: absolute;
  transform: scale(0);
  transition: opacity, transform 0ms cubic-bezier(0, 0.1, 0.2, 1);
}

.e-ripple-style::after {
  background: rgba(0, 0, 0, 0.3);
  content: '';
  display: block;
  height: 50%;
  left: 25%;
  opacity: 0;
  top: 25%;
  transform: scale(3);
  transition: transform .5s, opacity .5s;
  width: 50%;
}

.e-ripple-style:active::after {
  opacity: 1;
  transform: scale(0);
  transition: 0s;
}

/*! component's default definitions and variables */
/*! component's theme wise override material-definitions and variables */
/*! accordion icons */
.e-accordion .e-tgl-collapse-icon::before {
  content: '\e916';
}

.e-accordion .e-tgl-collapse-icon.e-expand-icon {
  transform: rotate(-180deg);
}

/*! accordion layout */
.e-bigger .e-accordion .e-acrdn-item .e-acrdn-header .e-acrdn-header-content,
.e-accordion.e-bigger .e-acrdn-item .e-acrdn-header .e-acrdn-header-content {
  font-size: 16px;
}

.e-bigger .e-accordion .e-acrdn-item.e-select .e-acrdn-panel,
.e-accordion.e-bigger .e-acrdn-item.e-select .e-acrdn-panel {
  font-size: 14px;
}

.e-bigger .e-accordion .e-acrdn-item.e-select .e-acrdn-panel.e-nested > .e-acrdn-content,
.e-accordion.e-bigger .e-acrdn-item.e-select .e-acrdn-panel.e-nested > .e-acrdn-content {
  padding: 0;
}

.e-bigger .e-accordion .e-acrdn-item.e-select .e-acrdn-panel.e-nested .e-acrdn-content .e-accordion,
.e-accordion.e-bigger .e-acrdn-item.e-select .e-acrdn-panel.e-nested .e-acrdn-content .e-accordion {
  border: 0;
}

.e-bigger .e-accordion .e-acrdn-item.e-select .e-acrdn-panel.e-nested .e-accordion .e-acrdn-panel.e-nested .e-acrdn-content .e-acrdn-header,
.e-accordion.e-bigger .e-acrdn-item.e-select .e-acrdn-panel.e-nested .e-accordion .e-acrdn-panel.e-nested .e-acrdn-content .e-acrdn-header {
  padding: 0 46px 0 48px;
}

.e-bigger .e-accordion .e-acrdn-item.e-select .e-acrdn-panel.e-nested .e-accordion .e-acrdn-item.e-select .e-acrdn-header,
.e-accordion.e-bigger .e-acrdn-item.e-select .e-acrdn-panel.e-nested .e-accordion .e-acrdn-item.e-select .e-acrdn-header {
  padding: 0 46px 0 32px;
}

.e-bigger .e-accordion .e-acrdn-item.e-select .e-acrdn-panel .e-acrdn-header .e-acrdn-header-content,
.e-accordion.e-bigger .e-acrdn-item.e-select .e-acrdn-panel .e-acrdn-header .e-acrdn-header-content {
  font-size: 14px;
}

.e-bigger .e-accordion .e-acrdn-item.e-select .e-acrdn-header,
.e-accordion.e-bigger .e-acrdn-item.e-select .e-acrdn-header {
  line-height: 47px;
  min-height: 48px;
  padding: 0 46px 0 16px;
}

.e-bigger .e-accordion .e-acrdn-item.e-select .e-acrdn-header .e-toggle-icon,
.e-accordion.e-bigger .e-acrdn-item.e-select .e-acrdn-header .e-toggle-icon {
  height: 48px;
  min-height: 48px;
  min-width: 30px;
  right: 16px;
}

.e-bigger .e-accordion .e-acrdn-item.e-select .e-acrdn-header .e-acrdn-header-icon,
.e-accordion.e-bigger .e-acrdn-item.e-select .e-acrdn-header .e-acrdn-header-icon {
  display: inline-block;
  padding: 0 14px 0 0;
}

.e-bigger .e-accordion .e-acrdn-item.e-select .e-acrdn-panel .e-acrdn-content,
.e-accordion.e-bigger .e-acrdn-item.e-select .e-acrdn-panel .e-acrdn-content {
  padding: 16px;
}

.e-bigger .e-accordion .e-acrdn-item.e-select .e-acrdn-panel .e-acrdn-content .e-acrdn-panel .e-acrdn-content,
.e-accordion.e-bigger .e-acrdn-item.e-select .e-acrdn-panel .e-acrdn-content .e-acrdn-panel .e-acrdn-content {
  padding: 16px 16px 16px 48px;
}

.e-bigger .e-accordion .e-acrdn-item.e-select .e-acrdn-panel .e-acrdn-content .e-acrdn-panel .e-acrdn-panel .e-acrdn-content,
.e-accordion.e-bigger .e-acrdn-item.e-select .e-acrdn-panel .e-acrdn-content .e-acrdn-panel .e-acrdn-panel .e-acrdn-content {
  padding: 16px 16px 16px 64px;
}

.e-bigger .e-accordion .e-acrdn-item.e-select .e-acrdn-panel .e-acrdn-content .e-acrdn-header,
.e-accordion.e-bigger .e-acrdn-item.e-select .e-acrdn-panel .e-acrdn-content .e-acrdn-header {
  padding: 0 46px 0 32px;
}

.e-bigger .e-accordion.e-rtl .e-acrdn-item.e-select .e-acrdn-panel .e-acrdn-content .e-acrdn-panel.e-nested > .e-acrdn-content,
.e-accordion.e-bigger.e-rtl .e-acrdn-item.e-select .e-acrdn-panel .e-acrdn-content .e-acrdn-panel.e-nested > .e-acrdn-content {
  padding: 0;
}

.e-bigger .e-accordion.e-rtl .e-acrdn-item.e-select .e-acrdn-panel .e-acrdn-content .e-acrdn-panel .e-acrdn-content,
.e-accordion.e-bigger.e-rtl .e-acrdn-item.e-select .e-acrdn-panel .e-acrdn-content .e-acrdn-panel .e-acrdn-content {
  padding: 16px 48px 16px 16px;
}

.e-bigger .e-accordion.e-rtl .e-acrdn-item.e-select .e-acrdn-panel .e-acrdn-content .e-acrdn-panel .e-acrdn-panel.e-nested > .e-acrdn-content,
.e-accordion.e-bigger.e-rtl .e-acrdn-item.e-select .e-acrdn-panel .e-acrdn-content .e-acrdn-panel .e-acrdn-panel.e-nested > .e-acrdn-content {
  padding: 0;
}

.e-bigger .e-accordion.e-rtl .e-acrdn-item.e-select .e-acrdn-panel .e-acrdn-content .e-acrdn-panel .e-acrdn-panel .e-acrdn-content,
.e-accordion.e-bigger.e-rtl .e-acrdn-item.e-select .e-acrdn-panel .e-acrdn-content .e-acrdn-panel .e-acrdn-panel .e-acrdn-content {
  padding: 16px 64px 16px 16px;
}

.e-bigger .e-accordion.e-rtl .e-acrdn-item.e-select .e-acrdn-panel.e-nested .e-accordion .e-acrdn-panel.e-nested .e-acrdn-content .e-acrdn-header,
.e-accordion.e-bigger.e-rtl .e-acrdn-item.e-select .e-acrdn-panel.e-nested .e-accordion .e-acrdn-panel.e-nested .e-acrdn-content .e-acrdn-header {
  padding: 0 48px 0 46px;
}

.e-bigger .e-accordion.e-rtl .e-acrdn-item.e-select .e-acrdn-panel.e-nested .e-accordion .e-acrdn-item.e-select .e-acrdn-header,
.e-accordion.e-bigger.e-rtl .e-acrdn-item.e-select .e-acrdn-panel.e-nested .e-accordion .e-acrdn-item.e-select .e-acrdn-header {
  padding: 0 32px 0 46px;
}

.e-bigger .e-accordion.e-rtl .e-acrdn-item .e-acrdn-header,
.e-accordion.e-bigger.e-rtl .e-acrdn-item .e-acrdn-header {
  padding: 0 16px 0 46px;
}

.e-bigger .e-accordion.e-rtl .e-acrdn-item .e-acrdn-header .e-toggle-icon,
.e-accordion.e-bigger.e-rtl .e-acrdn-item .e-acrdn-header .e-toggle-icon {
  left: 16px;
  right: auto;
}

.e-bigger .e-accordion.e-rtl .e-acrdn-item .e-acrdn-header .e-acrdn-header-icon,
.e-accordion.e-bigger.e-rtl .e-acrdn-item .e-acrdn-header .e-acrdn-header-icon {
  padding: 0 0 0 14px;
}

.e-accordion {
  display: block;
  position: relative;
}

.e-accordion .e-acrdn-item.e-select.e-selected:first-child {
  border-top: 0;
}

.e-accordion .e-acrdn-item.e-select.e-selected:last-child {
  border-bottom: 0;
}

.e-accordion .e-acrdn-item > .e-acrdn-header .e-acrdn-header-content {
  font-weight: normal;
}

.e-accordion .e-acrdn-item.e-selected {
  padding-top: 0;
}

.e-accordion .e-acrdn-item.e-selected > .e-acrdn-header .e-acrdn-header-content {
  font-weight: normal;
}

.e-accordion .e-acrdn-item {
  overflow: hidden;
  padding-top: "";
  position: relative;
}

.e-accordion .e-acrdn-item.e-hide {
  display: none;
}

.e-accordion .e-acrdn-item .e-acrdn-header .e-acrdn-header-content {
  font-size: 15px;
}

.e-accordion .e-acrdn-item.e-select > .e-acrdn-header {
  cursor: pointer;
}

.e-accordion .e-acrdn-item .e-acrdn-header {
  line-height: 35px;
  min-height: 36px;
  overflow: hidden;
  padding: 0 40px 0 16px;
  text-decoration: none;
  text-overflow: ellipsis;
  white-space: nowrap;
}

.e-accordion .e-acrdn-item .e-acrdn-header > * {
  display: inline-block;
}

.e-accordion .e-acrdn-item .e-acrdn-header .e-toggle-icon {
  display: table;
  font-size: 12px;
  height: 36px;
  min-height: 36px;
  min-width: 24px;
  position: absolute;
  right: 16px;
  top: 0;
}

.e-accordion .e-acrdn-item .e-acrdn-header .e-toggle-icon .e-tgl-collapse-icon.e-icons {
  display: table-cell;
  text-align: center;
  vertical-align: middle;
}

.e-accordion .e-acrdn-item .e-acrdn-header .e-toggle-animation {
  transition: .5s ease 0s;
}

.e-accordion .e-acrdn-item .e-acrdn-header .e-acrdn-header-icon {
  display: inline-block;
  padding: 0 8px 0 0;
}

.e-accordion .e-acrdn-item .e-acrdn-panel {
  font-size: 13px;
  overflow-y: hidden;
  text-decoration: none;
  width: 100%;
}

.e-accordion .e-acrdn-item .e-acrdn-panel.e-nested > .e-acrdn-content {
  padding: 0;
}

.e-accordion .e-acrdn-item .e-acrdn-panel.e-nested > .e-acrdn-content .e-acrdn-panel.e-nested > .e-acrdn-content {
  padding: 0;
}

.e-accordion .e-acrdn-item .e-acrdn-panel.e-nested > .e-acrdn-content .e-accordion {
  border: 0;
}

.e-accordion .e-acrdn-item .e-acrdn-panel.e-nested > .e-acrdn-content .e-accordion .e-acrdn-panel.e-nested .e-acrdn-content .e-acrdn-header {
  padding: 0 40px 0 48px;
}

.e-accordion .e-acrdn-item .e-acrdn-panel.e-nested .e-acrdn-item.e-select.e-selected .e-acrdn-header > .e-acrdn-header-content {
  font-weight: normal;
}

.e-accordion .e-acrdn-item .e-acrdn-panel.e-nested .e-nested .e-accordion .e-acrdn-item .e-acrdn-header .e-acrdn-header-content {
  font-weight: normal;
}

.e-accordion .e-acrdn-item .e-acrdn-panel .e-acrdn-panel .e-acrdn-content {
  padding: 16px 16px 16px 48px;
}

.e-accordion .e-acrdn-item .e-acrdn-panel .e-acrdn-panel .e-acrdn-panel .e-acrdn-content {
  padding: 16px 16px 16px 64px;
}

.e-accordion .e-acrdn-item .e-acrdn-panel .e-acrdn-content {
  line-height: 1.5;
  overflow: hidden;
  padding: 16px;
  text-overflow: ellipsis;
}

.e-accordion .e-acrdn-item .e-acrdn-panel .e-acrdn-content > * {
  overflow: hidden;
  text-overflow: ellipsis;
}

.e-accordion .e-acrdn-item .e-acrdn-panel .e-acrdn-content .e-acrdn-header {
  padding: 0 40px 0 32px;
}

.e-accordion .e-acrdn-item .e-acrdn-panel .e-acrdn-content .e-acrdn-header-content {
  font-size: 14px;
}

.e-accordion .e-acrdn-item .e-content-hide {
  display: none;
}

.e-accordion.e-rtl .e-acrdn-item .e-acrdn-panel.e-nested > .e-acrdn-content .e-accordion .e-acrdn-panel.e-nested .e-acrdn-content .e-acrdn-header {
  padding: 0 48px 0 40px;
}

.e-accordion.e-rtl .e-acrdn-item .e-acrdn-panel .e-acrdn-content .e-acrdn-header {
  padding: 0 32px 0 40px;
}

.e-accordion.e-rtl .e-acrdn-item .e-acrdn-panel .e-acrdn-panel .e-acrdn-content {
  padding: 16px 48px 16px 16px;
}

.e-accordion.e-rtl .e-acrdn-item .e-acrdn-panel .e-acrdn-panel .e-acrdn-panel .e-acrdn-content {
  padding: 16px 64px 16px 16px;
}

.e-accordion.e-rtl .e-acrdn-item .e-acrdn-header {
  padding: 0 16px 0 40px;
}

.e-accordion.e-rtl .e-acrdn-item .e-acrdn-header .e-toggle-icon {
  left: 16px;
  right: auto;
}

.e-accordion.e-rtl .e-acrdn-item .e-acrdn-header .e-acrdn-header-icon {
  padding: 0 0 0 8px;
}

/*! accordion theme */
.e-accordion {
  -webkit-tap-highlight-color: rgba(0, 0, 0, 0);
  background: #fff;
  border: 1px solid rgba(0, 0, 0, 0.12);
}

.e-accordion .e-active {
  background: #fff;
}

.e-accordion .e-acrdn-item.e-item-focus.e-select.e-selected.e-expand-state {
  border-top: 1px solid #fff;
}

.e-accordion .e-acrdn-item.e-item-focus.e-expand-state.e-select, .e-accordion .e-acrdn-item.e-item-focus.e-select.e-selected.e-expand-state {
  border-color: #eee;
}

.e-accordion .e-acrdn-item.e-expand-state.e-select {
  border-bottom: 1px solid #fff;
  border-top: 1px solid #fff;
}

.e-accordion .e-acrdn-item.e-overlay {
  background: #fff;
}

.e-accordion .e-acrdn-item.e-selected.e-select.e-expand-state > .e-acrdn-header:focus {
  background: #eee;
}

.e-accordion .e-acrdn-item .e-acrdn-panel.e-nested .e-acrdn-header .e-acrdn-header-content {
  color: rgba(0, 0, 0, 0.87);
}

.e-accordion .e-acrdn-item.e-select .e-acrdn-panel .e-acrdn-content {
  color: rgba(0, 0, 0, 0.87);
}

.e-accordion .e-acrdn-item.e-select .e-acrdn-panel .e-acrdn-content .e-content-icon {
  color: rgba(0, 0, 0, 0.54);
}

.e-accordion .e-acrdn-item .e-acrdn-header .e-acrdn-header-content {
  color: rgba(0, 0, 0, 0.87);
}

.e-accordion .e-acrdn-item .e-acrdn-header .e-acrdn-header-icon {
  color: rgba(0, 0, 0, 0.54);
}

.e-accordion .e-acrdn-item.e-expand-state.e-select:not(.e-selected) > .e-acrdn-header:focus {
  background: #eee;
}

.e-accordion .e-acrdn-item .e-acrdn-header:hover {
  background: "";
}

.e-accordion .e-acrdn-item .e-acrdn-header:active {
  background: "";
}

.e-accordion .e-acrdn-item .e-acrdn-header:focus {
  background: #eee;
}

.e-accordion .e-acrdn-item.e-select.e-selected.e-expand-state > .e-acrdn-header,
.e-accordion .e-acrdn-item.e-select.e-expand-state > .e-acrdn-header {
  background: #fff;
}

.e-accordion .e-acrdn-item.e-select.e-selected.e-expand-state > .e-acrdn-header > .e-toggle-icon,
.e-accordion .e-acrdn-item.e-select.e-expand-state > .e-acrdn-header > .e-toggle-icon {
  color: rgba(0, 0, 0, 0.54);
}

.e-accordion .e-acrdn-item.e-select.e-selected.e-expand-state > .e-acrdn-header .e-acrdn-header-icon,
.e-accordion .e-acrdn-item.e-select.e-selected.e-expand-state > .e-acrdn-header .e-acrdn-header-content,
.e-accordion .e-acrdn-item.e-select.e-expand-state > .e-acrdn-header .e-acrdn-header-icon,
.e-accordion .e-acrdn-item.e-select.e-expand-state > .e-acrdn-header .e-acrdn-header-content {
  color: #e3165b;
}

.e-accordion .e-acrdn-item.e-select {
  border-bottom: 1px solid transparent;
  border-top: 1px solid transparent;
}

.e-accordion .e-acrdn-item.e-select.e-item-focus {
  border-color: #eee;
}

.e-accordion .e-acrdn-item.e-selected.e-select {
  border-bottom: 1px solid rgba(0, 0, 0, 0.12);
  border-top: 1px solid rgba(0, 0, 0, 0.12);
}

.e-accordion .e-acrdn-item.e-selected + .e-selected {
  border-top: 1px solid transparent;
}

.e-accordion .e-acrdn-item.e-selected .e-selected:last-child {
  border-bottom: 1px none rgba(0, 0, 0, 0.12);
}

.e-accordion .e-acrdn-item.e-selected > .e-acrdn-panel .e-acrdn-content {
  color: rgba(0, 0, 0, 0.87);
}

.e-accordion .e-acrdn-item.e-selected > .e-acrdn-panel .e-acrdn-header-content {
  color: rgba(0, 0, 0, 0.54);
}

.e-accordion .e-acrdn-item .e-toggle-icon {
  color: rgba(0, 0, 0, 0.54);
}

.e-accordion .e-acrdn-item .e-acrdn-panel {
  font-size: 13px;
}

.e-ddl.e-control-wrapper .e-ddl-icon::before {
  transform: rotate(0deg);
  transition: transform 300ms ease;
}

.e-ddl.e-control-wrapper.e-icon-anim .e-ddl-icon::before {
  transform: rotate(180deg);
  transition: transform 300ms ease;
}

.e-dropdownbase .e-list-item.e-active.e-hover {
  color: #e3165b;
}

.e-input-group:not(.e-disabled) .e-control.e-dropdownlist ~ .e-ddl-icon:active,
.e-input-group:not(.e-disabled) .e-control.e-dropdownlist ~ .e-ddl-icon:hover,
.e-input-group:not(.e-disabled) .e-back-icon:active,
.e-input-group:not(.e-disabled) .e-back-icon:hover,
.e-popup.e-ddl .e-input-group:not(.e-disabled) .e-clear-icon:active,
.e-popup.e-ddl .e-input-group:not(.e-disabled) .e-clear-icon:hover {
  background: transparent;
}

.e-input-group .e-ddl-icon:not(:active)::after {
  animation: none;
}

.e-ddl.e-popup {
  border: 0;
  box-shadow: 0 2px 3px 1px rgba(0, 0, 0, 0.21);
  margin-top: 2px;
}

.e-bigger .e-popup.e-ddl-device-filter .e-input-group.e-input-focus:not(.e-success):not(.e-warning):not(.e-error) {
  border-color: #e0e0e0;
}

.e-bigger .e-popup.e-ddl-device-filter {
  margin-top: 0;
}

.e-bigger .e-ddl-device .e-input-group,
.e-bigger .e-ddl-device .e-input-group.e-input-focus:not(.e-success):not(.e-warning):not(.e-error) {
  background: #f5f5f5;
  border-width: 0;
  box-shadow: 0;
  margin-bottom: 0;
}

.e-bigger .e-ddl-device .e-input-group .e-back-icon,
.e-bigger .e-ddl-device .e-input-group input.e-input,
.e-bigger .e-ddl-device .e-input-group .e-clear-icon {
  background-color: #f5f5f5;
}

.e-popup.e-ddl:not(.e-ddl-device) .e-input-group .e-clear-icon {
  margin: 6px 6px 5px;
  min-height: 12px;
  min-width: 12px;
  padding: 6px;
}

.e-bigger .e-popup.e-ddl:not(.e-ddl-device) .e-input-group .e-clear-icon {
  min-height: 16px;
  min-width: 16px;
}

.e-bigger .e-popup.e-ddl:not(.e-ddl-device) .e-filter-parent .e-input-filter {
  padding: 8px 16px 8px 0;
}

.e-input-group.e-ddl,
.e-input-group.e-ddl .e-input,
.e-input-group.e-ddl .e-ddl-icon {
  background: transparent;
}

.e-ddl.e-ddl-device.e-ddl-device-filter .e-input-group:hover:not(.e-disabled):not(.e-float-icon-left),
.e-ddl.e-ddl-device.e-ddl-device-filter .e-input-group.e-control-wrapper:hover:not(.e-disabled):not(.e-float-icon-left) {
  border-bottom-width: 0;
}

@font-face {
  font-family: "e-icons";
  font-style: normal;
  font-weight: normal;
  src: url("data:application/x-font-ttf;charset=utf-8;base64,…") format("truetype");
}

.e-icons {
  font-family: "e-icons";
  font-style: normal;
  font-variant: normal;
  font-weight: normal;
  line-height: 1;
  speak: none;
  text-transform: none;
}

.e-avatar {
  -ms-flex-line-pack: center;
      align-content: center;
  -ms-flex-align: center;
      align-items: center;
  background-color: #bcbcbc;
  background-position: center;
  background-repeat: no-repeat;
  background-size: cover;
  border-radius: 5px;
  color: #fff;
  display: -ms-inline-flexbox;
  display: inline-flex;
  font-family: "Roboto", "Segoe UI", "GeezaPro", "DejaVu Serif", "sans-serif", "-apple-system", "BlinkMacSystemFont";
  font-size: 1em;
  font-weight: 400;
  height: 3em;
  -ms-flex-pack: center;
      justify-content: center;
  overflow: hidden;
  position: relative;
  width: 3em;
}

.e-avatar img {
  height: 100%;
  width: auto;
}

.e-avatar.e-avatar-circle {
  border-radius: 50%;
}

.e-avatar.e-avatar-xsmall {
  font-size: 0.6em;
}

.e-avatar.e-avatar-small {
  font-size: 0.8em;
}

.e-avatar.e-avatar-large {
  font-size: 1.2em;
}

.e-avatar.e-avatar-xlarge {
  font-size: 1.4em;
}

.e-badge {
  background: #fafafa;
  border-color: transparent;
  border-radius: 0.25em;
  box-shadow: 0 0 0 2px transparent;
  box-sizing: border-box;
  color: rgba(0, 0, 0, 0.87);
  display: inline-block;
  font-family: "Roboto", "Segoe UI", "GeezaPro", "DejaVu Serif", "sans-serif", "-apple-system", "BlinkMacSystemFont";
  font-size: 0.75em;
  font-weight: 500;
  line-height: 1;
  overflow: hidden;
  padding: 0.25em 0.4em 0.25em 0.4em;
  text-align: center;
  text-decoration: none;
  text-indent: 0;
  vertical-align: middle;
}

.e-badge:hover {
  text-decoration: none;
}

.e-badge.e-badge-pill {
  border-radius: 5em;
}

.e-badge.e-badge-notification {
  border-radius: 1em;
  font-size: 12px;
  height: 18px;
  left: 100%;
  line-height: 18px;
  min-width: 24px;
  padding: 0 8px 0 8px;
  position: absolute;
  top: -10px;
  width: auto;
}

.e-badge.e-badge-notification.e-badge-ghost {
  line-height: 16px;
}

.e-badge.e-badge-circle {
  border-radius: 50%;
  height: 1.834em;
  line-height: 1.834em;
  min-width: 0;
  padding: 0;
  width: 1.834em;
}

.e-badge.e-badge-circle.e-badge-ghost {
  line-height: 1.8em;
}

.e-badge.e-badge-overlap {
  position: absolute;
  top: -10px;
  transform: translateX(-50%);
}

.e-badge.e-badge-dot {
  border-radius: 100%;
  box-shadow: 0 0 0 1px #fff;
  height: 6px;
  left: 100%;
  line-height: 1;
  margin: 0;
  min-width: 0;
  overflow: visible;
  padding: 0;
  position: absolute;
  top: -3px;
  width: 6px;
}

.e-badge.e-badge-bottom.e-badge-dot {
  bottom: 3px;
  position: absolute;
  top: auto;
}

.e-badge.e-badge-bottom.e-badge-notification {
  bottom: -3px;
  position: absolute;
  top: auto;
}

button .e-badge {
  line-height: .9;
  position: relative;
  top: -2px;
}

button .e-badge.e-badge-circle {
  height: 2em;
  line-height: 2em;
  width: 2em;
}

button .e-badge.e-badge-circle.e-badge-ghost {
  line-height: 1.9em;
}

.e-badge.e-badge-primary:not(.e-badge-ghost):not([href]), .e-badge.e-badge-primary[href]:not(.e-badge-ghost) {
  background-color: #3f51b5;
  color: #fff;
}

.e-badge.e-badge-secondary:not(.e-badge-ghost):not([href]), .e-badge.e-badge-secondary[href]:not(.e-badge-ghost) {
  background-color: #e3165b;
  color: #fff;
}

.e-badge.e-badge-success:not(.e-badge-ghost):not([href]), .e-badge.e-badge-success[href]:not(.e-badge-ghost) {
  background-color: #4d841d;
  color: #fff;
}

.e-badge.e-badge-danger:not(.e-badge-ghost):not([href]), .e-badge.e-badge-danger[href]:not(.e-badge-ghost) {
  background-color: #d64113;
  color: #fff;
}

.e-badge.e-badge-warning:not(.e-badge-ghost):not([href]), .e-badge.e-badge-warning[href]:not(.e-badge-ghost) {
  background-color: #c15700;
  color: #fff;
}

.e-badge.e-badge-info:not(.e-badge-ghost):not([href]), .e-badge.e-badge-info[href]:not(.e-badge-ghost) {
  background-color: #0378d5;
  color: #fff;
}

.e-badge.e-badge-light:not(.e-badge-ghost):not([href]), .e-badge.e-badge-light[href]:not(.e-badge-ghost) {
  background-color: #fff;
  color: #000;
}

.e-badge.e-badge-dark:not(.e-badge-ghost):not([href]), .e-badge.e-badge-dark[href]:not(.e-badge-ghost) {
  background-color: #303030;
  color: #fff;
}

.e-badge.e-badge-primary[href]:not(.e-badge-ghost):hover {
  background-color: #32408f;
}

.e-badge.e-badge-secondary[href]:not(.e-badge-ghost):hover {
  background-color: #b51148;
}

.e-badge.e-badge-success[href]:not(.e-badge-ghost):hover {
  background-color: #355a14;
}

.e-badge.e-badge-danger[href]:not(.e-badge-ghost):hover {
  background-color: #a7330f;
}

.e-badge.e-badge-warning[href]:not(.e-badge-ghost):hover {
  background-color: #8e4000;
}

.e-badge.e-badge-info[href]:not(.e-badge-ghost):hover {
  background-color: #025ca3;
}

.e-badge.e-badge-light[href]:not(.e-badge-ghost):hover {
  background-color: #e6e6e6;
}

.e-badge.e-badge-dark[href]:not(.e-badge-ghost):hover {
  background-color: #171717;
}

.e-badge.e-badge-primary[href].e-badge-ghost:hover {
  border-color: #2b387c;
  color: #2b387c;
}

.e-badge.e-badge-secondary[href].e-badge-ghost:hover {
  border-color: #9d0f3f;
  color: #9d0f3f;
}

.e-badge.e-badge-success[href].e-badge-ghost:hover {
  border-color: #28450f;
  color: #28450f;
}

.e-badge.e-badge-danger[href].e-badge-ghost:hover {
  border-color: #902c0d;
  color: #902c0d;
}

.e-badge.e-badge-warning[href].e-badge-ghost:hover {
  border-color: #753500;
  color: #753500;
}

.e-badge.e-badge-info[href].e-badge-ghost:hover {
  border-color: #024e8a;
  color: #024e8a;
}

.e-badge.e-badge-light[href].e-badge-ghost:hover {
  border-color: #d9d9d9;
  color: #d9d9d9;
}

.e-badge.e-badge-dark[href].e-badge-ghost:hover {
  border-color: #0a0a0a;
  color: #0a0a0a;
}

.e-badge.e-badge-ghost.e-badge-primary {
  background-color: transparent;
  border: 1px solid #3f51b5;
  color: #3f51b5;
}

.e-badge.e-badge-ghost.e-badge-secondary {
  background-color: transparent;
  border: 1px solid #e3165b;
  color: #e3165b;
}

.e-badge.e-badge-ghost.e-badge-success {
  background-color: transparent;
  border: 1px solid #4d841d;
  color: #4d841d;
}

.e-badge.e-badge-ghost.e-badge-danger {
  background-color: transparent;
  border: 1px solid #d64113;
  color: #d64113;
}

.e-badge.e-badge-ghost.e-badge-warning {
  background-color: transparent;
  border: 1px solid #c15700;
  color: #c15700;
}

.e-badge.e-badge-ghost.e-badge-info {
  background-color: transparent;
  border: 1px solid #0378d5;
  color: #0378d5;
}

.e-badge.e-badge-ghost.e-badge-light {
  background-color: transparent;
  border: 1px solid #fff;
  color: #fff;
}

.e-badge.e-badge-ghost.e-badge-dark {
  background-color: transparent;
  border: 1px solid #303030;
  color: #303030;
}

/*! button layout */
.e-btn,
.e-css.e-btn {
  -webkit-font-smoothing: antialiased;
  border: 1px solid;
  border-radius: 2px;
  box-sizing: border-box;
  cursor: pointer;
  display: inline-block;
  font-family: "Roboto", "Segoe UI", "GeezaPro", "DejaVu Serif", "sans-serif", "-apple-system", "BlinkMacSystemFont";
  font-size: 14px;
  font-weight: 500;
  -ms-flex-pack: center;
      justify-content: center;
  line-height: 1.143em;
  outline: none;
  padding: 6px 12px 4px;
  text-align: center;
  text-decoration: none;
  text-transform: uppercase;
  -webkit-user-select: none;
     -moz-user-select: none;
      -ms-user-select: none;
          user-select: none;
  vertical-align: middle;
  white-space: nowrap;
}

.e-btn:disabled,
.e-css.e-btn:disabled {
  cursor: default;
}

.e-btn:hover, .e-btn:focus,
.e-css.e-btn:hover,
.e-css.e-btn:focus {
  text-decoration: none;
}

.e-btn::-moz-focus-inner,
.e-css.e-btn::-moz-focus-inner {
  border: 0;
  padding: 0;
}

.e-btn .e-btn-icon,
.e-css.e-btn .e-btn-icon {
  display: inline-block;
  font-size: 12px;
  margin-top: -2px;
  vertical-align: middle;
  width: 1em;
}

.e-btn .e-btn-icon.e-icon-left,
.e-css.e-btn .e-btn-icon.e-icon-left {
  margin-left: -0.6667em;
  width: 2.25em;
}

.e-btn .e-btn-icon.e-icon-right,
.e-css.e-btn .e-btn-icon.e-icon-right {
  margin-right: -0.6667em;
  width: 2.25em;
}

.e-btn .e-btn-icon.e-icon-top,
.e-css.e-btn .e-btn-icon.e-icon-top {
  display: block;
  margin-top: 0;
  padding-bottom: 6px;
  width: auto;
}

.e-btn .e-btn-icon.e-icon-bottom,
.e-css.e-btn .e-btn-icon.e-icon-bottom {
  display: block;
  margin-top: 0;
  padding-top: 6px;
  width: auto;
}

.e-btn.e-icon-btn,
.e-css.e-btn.e-icon-btn {
  padding: 6px 7px 4px;
}

.e-btn.e-top-icon-btn, .e-btn.e-bottom-icon-btn,
.e-css.e-btn.e-top-icon-btn,
.e-css.e-btn.e-bottom-icon-btn {
  line-height: 1;
  padding: 12px 12px;
}

.e-btn.e-round,
.e-css.e-btn.e-round {
  border-radius: 50%;
  height: 3em;
  line-height: 1;
  padding: 0;
  width: 3em;
}

.e-btn.e-round .e-btn-icon,
.e-css.e-btn.e-round .e-btn-icon {
  font-size: 14px;
  line-height: 2.8572em;
  margin-top: 0;
  width: auto;
}

.e-btn.e-rtl .e-icon-right,
.e-css.e-btn.e-rtl .e-icon-right {
  margin-left: -0.6667em;
  margin-right: 0;
}

.e-btn.e-rtl .e-icon-left,
.e-css.e-btn.e-rtl .e-icon-left {
  margin-left: 0;
  margin-right: -0.6667em;
}

.e-btn.e-flat,
.e-css.e-btn.e-flat {
  border: 1px solid;
}

.e-btn.e-small,
.e-css.e-btn.e-small {
  font-size: 12px;
  line-height: 1.5834em;
  padding: 2px 12px 1px;
}

.e-btn.e-small .e-btn-icon,
.e-css.e-btn.e-small .e-btn-icon {
  font-size: 11px;
  width: 1.091em;
}

.e-btn.e-small .e-btn-icon.e-icon-left,
.e-css.e-btn.e-small .e-btn-icon.e-icon-left {
  margin-left: -0.7273em;
  width: 2.182em;
}

.e-btn.e-small .e-btn-icon.e-icon-right,
.e-css.e-btn.e-small .e-btn-icon.e-icon-right {
  margin-right: -0.7273em;
  width: 2.182em;
}

.e-btn.e-small .e-btn-icon.e-icon-top,
.e-css.e-btn.e-small .e-btn-icon.e-icon-top {
  padding-bottom: 6px;
  width: auto;
}

.e-btn.e-small .e-btn-icon.e-icon-bottom,
.e-css.e-btn.e-small .e-btn-icon.e-icon-bottom {
  padding-top: 6px;
  width: auto;
}

.e-btn.e-small.e-icon-btn,
.e-css.e-btn.e-small.e-icon-btn {
  padding: 2px 5px 1px;
}

.e-btn.e-small.e-top-icon-btn, .e-btn.e-small.e-bottom-icon-btn,
.e-css.e-btn.e-small.e-top-icon-btn,
.e-css.e-btn.e-small.e-bottom-icon-btn {
  line-height: 1;
  padding: 12px 12px;
}

.e-btn.e-small.e-round,
.e-css.e-btn.e-small.e-round {
  height: 2.5em;
  line-height: 1;
  padding: 0;
  width: 2.5em;
}

.e-btn.e-small.e-round .e-btn-icon,
.e-css.e-btn.e-small.e-round .e-btn-icon {
  font-size: 12px;
  line-height: 2.3334em;
  width: auto;
}

.e-btn.e-small.e-rtl .e-icon-right,
.e-css.e-btn.e-small.e-rtl .e-icon-right {
  margin-left: -0.7273em;
  margin-right: 0;
}

.e-btn.e-small.e-rtl .e-icon-left,
.e-css.e-btn.e-small.e-rtl .e-icon-left {
  margin-left: 0;
  margin-right: btn-small-icon-margin;
}

.e-btn.e-block,
.e-css.e-btn.e-block {
  display: block;
  width: 100%;
}

.e-bigger .e-btn,
.e-bigger.e-btn,
.e-bigger .e-css.e-btn,
.e-bigger.e-css.e-btn {
  font-size: 14px;
  line-height: 2em;
  padding: 4px 16px 2px;
}

.e-bigger .e-btn .e-btn-icon,
.e-bigger.e-btn .e-btn-icon,
.e-bigger .e-css.e-btn .e-btn-icon,
.e-bigger.e-css.e-btn .e-btn-icon {
  font-size: 12px;
  width: 1em;
}

.e-bigger .e-btn .e-btn-icon.e-icon-left,
.e-bigger.e-btn .e-btn-icon.e-icon-left,
.e-bigger .e-css.e-btn .e-btn-icon.e-icon-left,
.e-bigger.e-css.e-btn .e-btn-icon.e-icon-left {
  margin-left: -1em;
  width: 3em;
}

.e-bigger .e-btn .e-btn-icon.e-icon-right,
.e-bigger.e-btn .e-btn-icon.e-icon-right,
.e-bigger .e-css.e-btn .e-btn-icon.e-icon-right,
.e-bigger.e-css.e-btn .e-btn-icon.e-icon-right {
  margin-right: -1em;
  width: 3em;
}

.e-bigger .e-btn .e-btn-icon.e-icon-top,
.e-bigger.e-btn .e-btn-icon.e-icon-top,
.e-bigger .e-css.e-btn .e-btn-icon.e-icon-top,
.e-bigger.e-css.e-btn .e-btn-icon.e-icon-top {
  padding-bottom: 8px;
  width: auto;
}

.e-bigger .e-btn .e-btn-icon.e-icon-bottom,
.e-bigger.e-btn .e-btn-icon.e-icon-bottom,
.e-bigger .e-css.e-btn .e-btn-icon.e-icon-bottom,
.e-bigger.e-css.e-btn .e-btn-icon.e-icon-bottom {
  padding-top: 8px;
  width: auto;
}

.e-bigger .e-btn.e-icon-btn,
.e-bigger.e-btn.e-icon-btn,
.e-bigger .e-css.e-btn.e-icon-btn,
.e-bigger.e-css.e-btn.e-icon-btn {
  padding: 4px 11px 2px;
}

.e-bigger .e-btn.e-top-icon-btn, .e-bigger .e-btn.e-bottom-icon-btn,
.e-bigger.e-btn.e-top-icon-btn,
.e-bigger.e-btn.e-bottom-icon-btn,
.e-bigger .e-css.e-btn.e-top-icon-btn,
.e-bigger .e-css.e-btn.e-bottom-icon-btn,
.e-bigger.e-css.e-btn.e-top-icon-btn,
.e-bigger.e-css.e-btn.e-bottom-icon-btn {
  line-height: 1;
  padding: 16px 16px;
}

.e-bigger .e-btn.e-round,
.e-bigger.e-btn.e-round,
.e-bigger .e-css.e-btn.e-round,
.e-bigger.e-css.e-btn.e-round {
  height: 3.7143em;
  line-height: 1;
  padding: 0;
  width: 3.7143em;
}

.e-bigger .e-btn.e-round .e-btn-icon,
.e-bigger.e-btn.e-round .e-btn-icon,
.e-bigger .e-css.e-btn.e-round .e-btn-icon,
.e-bigger.e-css.e-btn.e-round .e-btn-icon {
  font-size: 16px;
  line-height: 3.125em;
  width: auto;
}

.e-bigger .e-btn.e-rtl .e-icon-right,
.e-bigger.e-btn.e-rtl .e-icon-right,
.e-bigger .e-css.e-btn.e-rtl .e-icon-right,
.e-bigger.e-css.e-btn.e-rtl .e-icon-right {
  margin-left: -1em;
  margin-right: 0;
}

.e-bigger .e-btn.e-rtl .e-icon-left,
.e-bigger.e-btn.e-rtl .e-icon-left,
.e-bigger .e-css.e-btn.e-rtl .e-icon-left,
.e-bigger.e-css.e-btn.e-rtl .e-icon-left {
  margin-left: 0;
  margin-right: -1em;
}

.e-bigger .e-btn.e-small,
.e-bigger.e-btn.e-small,
.e-bigger .e-css.e-btn.e-small,
.e-bigger.e-css.e-btn.e-small {
  font-size: 14px;
  line-height: 2em;
  padding: 3px 16px 1px;
}

.e-bigger .e-btn.e-small .e-btn-icon,
.e-bigger.e-btn.e-small .e-btn-icon,
.e-bigger .e-css.e-btn.e-small .e-btn-icon,
.e-bigger.e-css.e-btn.e-small .e-btn-icon {
  font-size: 12px;
  width: 1em;
}

.e-bigger .e-btn.e-small .e-btn-icon.e-icon-left,
.e-bigger.e-btn.e-small .e-btn-icon.e-icon-left,
.e-bigger .e-css.e-btn.e-small .e-btn-icon.e-icon-left,
.e-bigger.e-css.e-btn.e-small .e-btn-icon.e-icon-left {
  margin-left: -1em;
  width: 2.6667em;
}

.e-bigger .e-btn.e-small .e-btn-icon.e-icon-right,
.e-bigger.e-btn.e-small .e-btn-icon.e-icon-right,
.e-bigger .e-css.e-btn.e-small .e-btn-icon.e-icon-right,
.e-bigger.e-css.e-btn.e-small .e-btn-icon.e-icon-right {
  margin-right: -1em;
  width: 2.6667em;
}

.e-bigger .e-btn.e-small .e-btn-icon.e-icon-top,
.e-bigger.e-btn.e-small .e-btn-icon.e-icon-top,
.e-bigger .e-css.e-btn.e-small .e-btn-icon.e-icon-top,
.e-bigger.e-css.e-btn.e-small .e-btn-icon.e-icon-top {
  padding-bottom: 6px;
  width: auto;
}

.e-bigger .e-btn.e-small .e-btn-icon.e-icon-bottom,
.e-bigger.e-btn.e-small .e-btn-icon.e-icon-bottom,
.e-bigger .e-css.e-btn.e-small .e-btn-icon.e-icon-bottom,
.e-bigger.e-css.e-btn.e-small .e-btn-icon.e-icon-bottom {
  padding-top: 6px;
  width: auto;
}

.e-bigger .e-btn.e-small.e-icon-btn,
.e-bigger.e-btn.e-small.e-icon-btn,
.e-bigger .e-css.e-btn.e-small.e-icon-btn,
.e-bigger.e-css.e-btn.e-small.e-icon-btn {
  padding: 3px 10px 1px;
}

.e-bigger .e-btn.e-small.e-top-icon-btn, .e-bigger .e-btn.e-small.e-bottom-icon-btn,
.e-bigger.e-btn.e-small.e-top-icon-btn,
.e-bigger.e-btn.e-small.e-bottom-icon-btn,
.e-bigger .e-css.e-btn.e-small.e-top-icon-btn,
.e-bigger .e-css.e-btn.e-small.e-bottom-icon-btn,
.e-bigger.e-css.e-btn.e-small.e-top-icon-btn,
.e-bigger.e-css.e-btn.e-small.e-bottom-icon-btn {
  line-height: 1;
  padding: 16px 16px;
}

.e-bigger .e-btn.e-small.e-round,
.e-bigger.e-btn.e-small.e-round,
.e-bigger .e-css.e-btn.e-small.e-round,
.e-bigger.e-css.e-btn.e-small.e-round {
  height: 2.8572em;
  line-height: 1;
  padding: 0;
  width: 2.8572em;
}

.e-bigger .e-btn.e-small.e-round .e-btn-icon,
.e-bigger.e-btn.e-small.e-round .e-btn-icon,
.e-bigger .e-css.e-btn.e-small.e-round .e-btn-icon,
.e-bigger.e-css.e-btn.e-small.e-round .e-btn-icon {
  font-size: 14px;
  line-height: 2.7143em;
  width: auto;
}

.e-bigger .e-btn.e-small.e-rtl .e-icon-right,
.e-bigger.e-btn.e-small.e-rtl .e-icon-right,
.e-bigger .e-css.e-btn.e-small.e-rtl .e-icon-right,
.e-bigger.e-css.e-btn.e-small.e-rtl .e-icon-right {
  margin-left: -1em;
  margin-right: 0;
}

.e-bigger .e-btn.e-small.e-rtl .e-icon-left,
.e-bigger.e-btn.e-small.e-rtl .e-icon-left,
.e-bigger .e-css.e-btn.e-small.e-rtl .e-icon-left,
.e-bigger.e-css.e-btn.e-small.e-rtl .e-icon-left {
  margin-left: 0;
  margin-right: -1em;
}

/*! button theme */
.e-btn,
.e-css.e-btn {
  -webkit-tap-highlight-color: transparent;
  background-color: #fafafa;
  border-color: transparent;
  box-shadow: 0 3px 1px -2px rgba(0, 0, 0, 0.2), 0 2px 2px 0 rgba(0, 0, 0, 0.14), 0 1px 5px 0 rgba(0, 0, 0, 0.12);
  color: rgba(0, 0, 0, 0.87);
  transition: box-shadow 280ms cubic-bezier(0.4, 0, 0.2, 1);
}

.e-btn:hover,
.e-css.e-btn:hover {
  background-color: rgba(226, 226, 226, 0.9844);
  border-color: transparent;
  box-shadow: 0 2px 4px -1px rgba(0, 0, 0, 0.2), 0 4px 5px 0 rgba(0, 0, 0, 0.14), 0 1px 10px 0 rgba(0, 0, 0, 0.12);
  color: rgba(0, 0, 0, 0.87);
}

.e-btn:focus,
.e-css.e-btn:focus {
  background-color: rgba(201, 201, 201, 0.9688);
  border-color: transparent;
  box-shadow: 0 2px 4px -1px rgba(0, 0, 0, 0.2), 0 4px 5px 0 rgba(0, 0, 0, 0.14), 0 1px 10px 0 rgba(0, 0, 0, 0.12);
  color: rgba(0, 0, 0, 0.87);
  outline: #fafafa 0 solid;
  outline-offset: 0;
}

.e-btn:active,
.e-css.e-btn:active {
  background-color: rgba(184, 184, 184, 0.9584);
  border-color: transparent;
  box-shadow: 0 5px 5px -3px rgba(0, 0, 0, 0.2), 0 8px 10px 1px rgba(0, 0, 0, 0.14), 0 3px 14px 2px rgba(0, 0, 0, 0.12);
  color: rgba(0, 0, 0, 0.87);
  outline: #fafafa 0 solid;
  outline-offset: 0;
}

.e-btn.e-active,
.e-css.e-btn.e-active {
  background-color: rgba(184, 184, 184, 0.9584);
  border-color: transparent;
  box-shadow: 0 5px 5px -3px rgba(0, 0, 0, 0.2), 0 8px 10px 1px rgba(0, 0, 0, 0.14), 0 3px 14px 2px rgba(0, 0, 0, 0.12);
  color: rgba(0, 0, 0, 0.87);
}

.e-btn:disabled,
.e-css.e-btn:disabled {
  background-color: rgba(0, 0, 0, 0.12);
  border-color: transparent;
  box-shadow: none;
  color: rgba(0, 0, 0, 0.26);
}

.e-btn .e-ripple-element,
.e-css.e-btn .e-ripple-element {
  background-color: rgba(0, 0, 0, 0.24);
}

.e-btn.e-round,
.e-css.e-btn.e-round {
  background-color: #fafafa;
  border-color: transparent;
  color: rgba(0, 0, 0, 0.87);
}

.e-btn.e-round:hover,
.e-css.e-btn.e-round:hover {
  background-color: rgba(0, 0, 0, 0.12);
  border-color: rgba(0, 0, 0, 0.12);
  color: rgba(0, 0, 0, 0.87);
}

.e-btn.e-round:focus,
.e-css.e-btn.e-round:focus {
  background-color: rgba(201, 201, 201, 0.9688);
  border-color: transparent;
  box-shadow: 0 3px 1px -2px rgba(0, 0, 0, 0.2), 0 2px 2px 0 rgba(0, 0, 0, 0.14), 0 1px 5px 0 rgba(0, 0, 0, 0.12);
  color: rgba(0, 0, 0, 0.87);
  outline: #fafafa 0 solid;
  outline-offset: 0;
}

.e-btn.e-round:active,
.e-css.e-btn.e-round:active {
  background-color: rgba(184, 184, 184, 0.9584);
  border-color: transparent;
  box-shadow: 0 5px 5px -3px rgba(0, 0, 0, 0.2), 0 8px 10px 1px rgba(0, 0, 0, 0.14), 0 3px 14px 2px rgba(0, 0, 0, 0.12);
  color: rgba(0, 0, 0, 0.87);
  outline: #fafafa 0 solid;
  outline-offset: 0;
}

.e-btn.e-round:disabled,
.e-css.e-btn.e-round:disabled {
  background-color: rgba(0, 0, 0, 0.12);
  border-color: transparent;
  box-shadow: none;
  color: rgba(0, 0, 0, 0.26);
}

.e-btn.e-round.e-primary:focus,
.e-css.e-btn.e-round.e-primary:focus {
  outline: #fafafa 0 solid;
}

.e-btn.e-round.e-success:focus,
.e-css.e-btn.e-round.e-success:focus {
  outline: #fafafa 0 solid;
}

.e-btn.e-round.e-info:focus,
.e-css.e-btn.e-round.e-info:focus {
  outline: #fafafa 0 solid;
}

.e-btn.e-round.e-warning:focus,
.e-css.e-btn.e-round.e-warning:focus {
  outline: #fafafa 0 solid;
}

.e-btn.e-round.e-danger:focus,
.e-css.e-btn.e-round.e-danger:focus {
  outline: #fafafa 0 solid;
}

.e-btn.e-primary,
.e-css.e-btn.e-primary {
  background-color: #e3165b;
  border-color: transparent;
  color: #fff;
}

.e-btn.e-primary:hover,
.e-css.e-btn.e-primary:hover {
  background-color: #e6326f;
  border-color: transparent;
  box-shadow: 0 2px 4px -1px rgba(0, 0, 0, 0.2), 0 4px 5px 0 rgba(0, 0, 0, 0.14), 0 1px 10px 0 rgba(0, 0, 0, 0.12);
  color: #fff;
}

.e-btn.e-primary:focus,
.e-css.e-btn.e-primary:focus {
  background-color: #ea4e82;
  border-color: transparent;
  box-shadow: 0 2px 4px -1px rgba(0, 0, 0, 0.2), 0 4px 5px 0 rgba(0, 0, 0, 0.14), 0 1px 10px 0 rgba(0, 0, 0, 0.12);
  color: #fff;
  outline: #fafafa 0 solid;
}

.e-btn.e-primary:active,
.e-css.e-btn.e-primary:active {
  background-color: #ec618f;
  border-color: transparent;
  box-shadow: 0 5px 5px -3px rgba(0, 0, 0, 0.2), 0 8px 10px 1px rgba(0, 0, 0, 0.14), 0 3px 14px 2px rgba(0, 0, 0, 0.12);
  color: #fff;
  outline: #fafafa 0 solid;
}

.e-btn.e-primary.e-active,
.e-css.e-btn.e-primary.e-active {
  background-color: #ec618f;
  border-color: transparent;
  box-shadow: 0 5px 5px -3px rgba(0, 0, 0, 0.2), 0 8px 10px 1px rgba(0, 0, 0, 0.14), 0 3px 14px 2px rgba(0, 0, 0, 0.12);
  color: #fff;
}

.e-btn.e-primary:disabled,
.e-css.e-btn.e-primary:disabled {
  background-color: rgba(0, 0, 0, 0.12);
  border-color: transparent;
  box-shadow: none;
  color: rgba(0, 0, 0, 0.26);
}

.e-btn.e-primary .e-ripple-element,
.e-css.e-btn.e-primary .e-ripple-element {
  background-color: rgba(255, 255, 255, 0.24);
}

.e-btn.e-success,
.e-css.e-btn.e-success {
  background-color: #4d841d;
  border-color: transparent;
  color: #fff;
}

.e-btn.e-success:hover,
.e-css.e-btn.e-success:hover {
  background-color: #629338;
  border-color: transparent;
  box-shadow: 0 2px 4px -1px rgba(0, 0, 0, 0.2), 0 4px 5px 0 rgba(0, 0, 0, 0.14), 0 1px 10px 0 rgba(0, 0, 0, 0.12);
  color: #fff;
}

.e-btn.e-success:focus,
.e-css.e-btn.e-success:focus {
  background-color: #78a253;
  border-color: transparent;
  box-shadow: 0 2px 4px -1px rgba(0, 0, 0, 0.2), 0 4px 5px 0 rgba(0, 0, 0, 0.14), 0 1px 10px 0 rgba(0, 0, 0, 0.12);
  color: #fff;
}

.e-btn.e-success:active, .e-btn.e-success.e-active,
.e-css.e-btn.e-success:active,
.e-css.e-btn.e-success.e-active {
  background-color: #86ab65;
  border-color: transparent;
  box-shadow: 0 5px 5px -3px rgba(0, 0, 0, 0.2), 0 8px 10px 1px rgba(0, 0, 0, 0.14), 0 3px 14px 2px rgba(0, 0, 0, 0.12);
  color: #fff;
}

.e-btn.e-success:disabled,
.e-css.e-btn.e-success:disabled {
  background-color: rgba(0, 0, 0, 0.12);
  border-color: transparent;
  box-shadow: none;
  color: rgba(0, 0, 0, 0.26);
}

.e-btn.e-success .e-ripple-element,
.e-css.e-btn.e-success .e-ripple-element {
  background-color: rgba(255, 255, 255, 0.24);
}

.e-btn.e-info,
.e-css.e-btn.e-info {
  background-color: #0378d5;
  border-color: transparent;
  color: #fff;
}

.e-btn.e-info:hover,
.e-css.e-btn.e-info:hover {
  background-color: #2188da;
  border-color: transparent;
  box-shadow: 0 2px 4px -1px rgba(0, 0, 0, 0.2), 0 4px 5px 0 rgba(0, 0, 0, 0.14), 0 1px 10px 0 rgba(0, 0, 0, 0.12);
  color: #fff;
}

.e-btn.e-info:focus,
.e-css.e-btn.e-info:focus {
  background-color: #3f98df;
  border-color: transparent;
  box-shadow: 0 2px 4px -1px rgba(0, 0, 0, 0.2), 0 4px 5px 0 rgba(0, 0, 0, 0.14), 0 1px 10px 0 rgba(0, 0, 0, 0.12);
  color: #fff;
}

.e-btn.e-info:active, .e-btn.e-info.e-active,
.e-css.e-btn.e-info:active,
.e-css.e-btn.e-info.e-active {
  background-color: #54a3e2;
  border-color: transparent;
  box-shadow: 0 5px 5px -3px rgba(0, 0, 0, 0.2), 0 8px 10px 1px rgba(0, 0, 0, 0.14), 0 3px 14px 2px rgba(0, 0, 0, 0.12);
  color: #fff;
}

.e-btn.e-info:disabled,
.e-css.e-btn.e-info:disabled {
  background-color: rgba(0, 0, 0, 0.12);
  border-color: transparent;
  box-shadow: none;
  color: rgba(0, 0, 0, 0.26);
}

.e-btn.e-info .e-ripple-element,
.e-css.e-btn.e-info .e-ripple-element {
  background-color: rgba(255, 255, 255, 0.24);
}

.e-btn.e-warning,
.e-css.e-btn.e-warning {
  background-color: #c15700;
  border-color: transparent;
  color: #fff;
}

.e-btn.e-warning:hover,
.e-css.e-btn.e-warning:hover {
  background-color: #c86b1f;
  border-color: transparent;
  box-shadow: 0 2px 4px -1px rgba(0, 0, 0, 0.2), 0 4px 5px 0 rgba(0, 0, 0, 0.14), 0 1px 10px 0 rgba(0, 0, 0, 0.12);
  color: #fff;
}

.e-btn.e-warning:focus,
.e-css.e-btn.e-warning:focus {
  background-color: #d07f3d;
  border-color: transparent;
  box-shadow: 0 2px 4px -1px rgba(0, 0, 0, 0.2), 0 4px 5px 0 rgba(0, 0, 0, 0.14), 0 1px 10px 0 rgba(0, 0, 0, 0.12);
  color: #fff;
}

.e-btn.e-warning:active, .e-btn.e-warning.e-active,
.e-css.e-btn.e-warning:active,
.e-css.e-btn.e-warning.e-active {
  background-color: #d58d52;
  border-color: transparent;
  box-shadow: 0 5px 5px -3px rgba(0, 0, 0, 0.2), 0 8px 10px 1px rgba(0, 0, 0, 0.14), 0 3px 14px 2px rgba(0, 0, 0, 0.12);
  color: #fff;
}

.e-btn.e-warning:disabled,
.e-css.e-btn.e-warning:disabled {
  background-color: rgba(0, 0, 0, 0.12);
  border-color: transparent;
  box-shadow: none;
  color: rgba(0, 0, 0, 0.26);
}

.e-btn.e-warning .e-ripple-element,
.e-css.e-btn.e-warning .e-ripple-element {
  background-color: rgba(255, 255, 255, 0.24);
}

.e-btn.e-danger,
.e-css.e-btn.e-danger {
  background-color: #d64113;
  border-color: transparent;
  color: #fff;
}

.e-btn.e-danger:hover,
.e-css.e-btn.e-danger:hover {
  background-color: #db582f;
  border-color: transparent;
  box-shadow: 0 2px 4px -1px rgba(0, 0, 0, 0.2), 0 4px 5px 0 rgba(0, 0, 0, 0.14), 0 1px 10px 0 rgba(0, 0, 0, 0.12);
  color: #fff;
}

.e-btn.e-danger:focus,
.e-css.e-btn.e-danger:focus {
  background-color: #e06f4c;
  border-color: transparent;
  box-shadow: 0 2px 4px -1px rgba(0, 0, 0, 0.2), 0 4px 5px 0 rgba(0, 0, 0, 0.14), 0 1px 10px 0 rgba(0, 0, 0, 0.12);
  color: #fff;
}

.e-btn.e-danger:active,
.e-css.e-btn.e-danger:active {
  background-color: #e37e5f;
  border-color: transparent;
  box-shadow: 0 5px 5px -3px rgba(0, 0, 0, 0.2), 0 8px 10px 1px rgba(0, 0, 0, 0.14), 0 3px 14px 2px rgba(0, 0, 0, 0.12);
  color: #fff;
}

.e-btn.e-danger.e-active,
.e-css.e-btn.e-danger.e-active {
  background-color: #e37e5f;
  border-color: transparent;
  box-shadow: 0 5px 5px -3px rgba(0, 0, 0, 0.2), 0 8px 10px 1px rgba(0, 0, 0, 0.14), 0 3px 14px 2px rgba(0, 0, 0, 0.12);
  color: #fff;
}

.e-btn.e-danger:disabled,
.e-css.e-btn.e-danger:disabled {
  background-color: rgba(0, 0, 0, 0.12);
  border-color: transparent;
  box-shadow: none;
  color: rgba(0, 0, 0, 0.26);
}

.e-btn.e-danger .e-ripple-element,
.e-css.e-btn.e-danger .e-ripple-element {
  background-color: rgba(255, 255, 255, 0.24);
}

.e-btn.e-flat,
.e-css.e-btn.e-flat {
  background-color: transparent;
  border-color: transparent;
  box-shadow: none;
  color: rgba(0, 0, 0, 0.87);
}

.e-btn.e-flat:hover,
.e-css.e-btn.e-flat:hover {
  background-color: rgba(0, 0, 0, 0.0348);
  border-color: transparent;
  box-shadow: none;
  color: rgba(0, 0, 0, 0.87);
}

.e-btn.e-flat:focus,
.e-css.e-btn.e-flat:focus {
  background-color: rgba(0, 0, 0, 0.1044);
  border-color: transparent;
  box-shadow: none;
  color: rgba(0, 0, 0, 0.87);
}

.e-btn.e-flat:active, .e-btn.e-flat.e-active,
.e-css.e-btn.e-flat:active,
.e-css.e-btn.e-flat.e-active {
  background-color: rgba(0, 0, 0, 0.2088);
  border-color: transparent;
  box-shadow: none;
  color: rgba(0, 0, 0, 0.87);
}

.e-btn.e-flat:disabled,
.e-css.e-btn.e-flat:disabled {
  background-color: transparent;
  border-color: transparent;
  box-shadow: none;
  color: rgba(0, 0, 0, 0.26);
}

.e-btn.e-flat .e-ripple-element,
.e-css.e-btn.e-flat .e-ripple-element {
  background-color: rgba(0, 0, 0, 0.12);
}

.e-btn.e-flat.e-primary,
.e-css.e-btn.e-flat.e-primary {
  background-color: transparent;
  border-color: transparent;
  color: #e3165b;
}

.e-btn.e-flat.e-primary:hover,
.e-css.e-btn.e-flat.e-primary:hover {
  background-color: rgba(227, 22, 91, 0.04);
  border-color: transparent;
  color: #e3165b;
}

.e-btn.e-flat.e-primary:focus,
.e-css.e-btn.e-flat.e-primary:focus {
  background-color: rgba(227, 22, 91, 0.12);
  border-color: transparent;
  color: #e3165b;
}

.e-btn.e-flat.e-primary:active, .e-btn.e-flat.e-primary.e-active,
.e-css.e-btn.e-flat.e-primary:active,
.e-css.e-btn.e-flat.e-primary.e-active {
  background-color: rgba(227, 22, 91, 0.24);
  border-color: transparent;
  color: #e3165b;
}

.e-btn.e-flat.e-primary:disabled,
.e-css.e-btn.e-flat.e-primary:disabled {
  background-color: rgba(0, 0, 0, 0.12);
  border-color: transparent;
  box-shadow: none;
  color: rgba(0, 0, 0, 0.26);
}

.e-btn.e-flat.e-primary .e-ripple-element,
.e-css.e-btn.e-flat.e-primary .e-ripple-element {
  background-color: rgba(227, 22, 91, 0.12);
}

.e-btn.e-flat.e-success,
.e-css.e-btn.e-flat.e-success {
  background-color: transparent;
  border-color: transparent;
  color: #4d841d;
}

.e-btn.e-flat.e-success:hover,
.e-css.e-btn.e-flat.e-success:hover {
  background-color: rgba(77, 132, 29, 0.04);
  border-color: transparent;
  box-shadow: none;
  color: #4d841d;
}

.e-btn.e-flat.e-success:focus,
.e-css.e-btn.e-flat.e-success:focus {
  background-color: rgba(77, 132, 29, 0.12);
  border-color: transparent;
  box-shadow: none;
  color: #4d841d;
}

.e-btn.e-flat.e-success:active, .e-btn.e-flat.e-success.e-active,
.e-css.e-btn.e-flat.e-success:active,
.e-css.e-btn.e-flat.e-success.e-active {
  background-color: rgba(77, 132, 29, 0.24);
  border-color: transparent;
  box-shadow: none;
  color: #4d841d;
}

.e-btn.e-flat.e-success:disabled,
.e-css.e-btn.e-flat.e-success:disabled {
  background-color: rgba(0, 0, 0, 0.12);
  border-color: transparent;
  color: rgba(0, 0, 0, 0.26);
}

.e-btn.e-flat.e-success .e-ripple-element,
.e-css.e-btn.e-flat.e-success .e-ripple-element {
  background-color: rgba(77, 132, 29, 0.12);
}

.e-btn.e-flat.e-info,
.e-css.e-btn.e-flat.e-info {
  background-color: transparent;
  border-color: transparent;
  color: #0378d5;
}

.e-btn.e-flat.e-info:hover,
.e-css.e-btn.e-flat.e-info:hover {
  background-color: rgba(3, 120, 213, 0.04);
  border-color: transparent;
  box-shadow: none;
  color: #0378d5;
}

.e-btn.e-flat.e-info:focus,
.e-css.e-btn.e-flat.e-info:focus {
  background-color: rgba(3, 120, 213, 0.12);
  border-color: transparent;
  box-shadow: none;
  color: #0378d5;
}

.e-btn.e-flat.e-info:active, .e-btn.e-flat.e-info.e-active,
.e-css.e-btn.e-flat.e-info:active,
.e-css.e-btn.e-flat.e-info.e-active {
  background-color: rgba(3, 120, 213, 0.24);
  border-color: transparent;
  box-shadow: none;
  color: #0378d5;
}

.e-btn.e-flat.e-info:disabled,
.e-css.e-btn.e-flat.e-info:disabled {
  background-color: rgba(0, 0, 0, 0.12);
  border-color: transparent;
  color: rgba(0, 0, 0, 0.26);
}

.e-btn.e-flat.e-info .e-ripple-element,
.e-css.e-btn.e-flat.e-info .e-ripple-element {
  background-color: rgba(3, 120, 213, 0.12);
}

.e-btn.e-flat.e-warning,
.e-css.e-btn.e-flat.e-warning {
  background-color: transparent;
  border-color: transparent;
  color: #c15700;
}

.e-btn.e-flat.e-warning:hover,
.e-css.e-btn.e-flat.e-warning:hover {
  background-color: rgba(193, 87, 0, 0.04);
  border-color: transparent;
  box-shadow: none;
  color: #c15700;
}

.e-btn.e-flat.e-warning:focus,
.e-css.e-btn.e-flat.e-warning:focus {
  background-color: rgba(193, 87, 0, 0.12);
  border-color: transparent;
  box-shadow: none;
  color: #c15700;
}

.e-btn.e-flat.e-warning:active, .e-btn.e-flat.e-warning.e-active,
.e-css.e-btn.e-flat.e-warning:active,
.e-css.e-btn.e-flat.e-warning.e-active {
  background-color: rgba(193, 87, 0, 0.24);
  border-color: transparent;
  box-shadow: none;
  color: #c15700;
}

.e-btn.e-flat.e-warning:disabled,
.e-css.e-btn.e-flat.e-warning:disabled {
  background-color: rgba(0, 0, 0, 0.12);
  border-color: transparent;
  color: rgba(0, 0, 0, 0.26);
}

.e-btn.e-flat.e-warning .e-ripple-element,
.e-css.e-btn.e-flat.e-warning .e-ripple-element {
  background-color: rgba(193, 87, 0, 0.12);
}

.e-btn.e-flat.e-danger,
.e-css.e-btn.e-flat.e-danger {
  background-color: transparent;
  border-color: transparent;
  color: #d64113;
}

.e-btn.e-flat.e-danger:hover,
.e-css.e-btn.e-flat.e-danger:hover {
  background-color: rgba(214, 65, 19, 0.04);
  border-color: transparent;
  box-shadow: none;
  color: #d64113;
}

.e-btn.e-flat.e-danger:focus,
.e-css.e-btn.e-flat.e-danger:focus {
  background-color: rgba(214, 65, 19, 0.12);
  border-color: transparent;
  box-shadow: none;
  color: #d64113;
}

.e-btn.e-flat.e-danger:active, .e-btn.e-flat.e-danger.e-active,
.e-css.e-btn.e-flat.e-danger:active,
.e-css.e-btn.e-flat.e-danger.e-active {
  background-color: rgba(214, 65, 19, 0.24);
  border-color: transparent;
  box-shadow: none;
  color: #d64113;
}

.e-btn.e-flat.e-danger:disabled,
.e-css.e-btn.e-flat.e-danger:disabled {
  background-color: rgba(0, 0, 0, 0.12);
  border-color: transparent;
  color: rgba(0, 0, 0, 0.26);
}

.e-btn.e-flat.e-danger .e-ripple-element,
.e-css.e-btn.e-flat.e-danger .e-ripple-element {
  background-color: rgba(214, 65, 19, 0.12);
}

.e-btn.e-outline,
.e-css.e-btn.e-outline {
  background-color: transparent;
  border-color: #adadad;
  box-shadow: none;
  color: rgba(0, 0, 0, 0.87);
}

.e-btn.e-outline:hover,
.e-css.e-btn.e-outline:hover {
  background-color: rgba(0, 0, 0, 0.12);
  border-color: #adadad;
  box-shadow: none;
  color: rgba(0, 0, 0, 0.87);
}

.e-btn.e-outline:focus,
.e-css.e-btn.e-outline:focus {
  background-color: rgba(0, 0, 0, 0.24);
  border-color: transparent;
  box-shadow: 0 2px 4px -1px rgba(0, 0, 0, 0.2), 0 4px 5px 0 rgba(0, 0, 0, 0.14), 0 1px 10px 0 rgba(0, 0, 0, 0.12);
  color: rgba(0, 0, 0, 0.87);
}

.e-btn.e-outline:active, .e-btn.e-outline.e-active,
.e-css.e-btn.e-outline:active,
.e-css.e-btn.e-outline.e-active {
  background-color: rgba(0, 0, 0, 0.32);
  border-color: #adadad;
  box-shadow: none;
  color: rgba(0, 0, 0, 0.87);
}

.e-btn.e-outline:disabled,
.e-css.e-btn.e-outline:disabled {
  background-color: transparent;
  border-color: rgba(0, 0, 0, 0.26);
  box-shadow: none;
  color: rgba(0, 0, 0, 0.26);
}

.e-btn.e-outline.e-primary,
.e-css.e-btn.e-outline.e-primary {
  background-color: transparent;
  border-color: #e3165b;
  color: #e3165b;
}

.e-btn.e-outline.e-primary:hover,
.e-css.e-btn.e-outline.e-primary:hover {
  background-color: #e6326f;
  border-color: transparent;
  color: #fff;
}

.e-btn.e-outline.e-primary:focus,
.e-css.e-btn.e-outline.e-primary:focus {
  background-color: #ea4e82;
  border-color: transparent;
  color: #fff;
}

.e-btn.e-outline.e-primary:active, .e-btn.e-outline.e-primary.e-active,
.e-css.e-btn.e-outline.e-primary:active,
.e-css.e-btn.e-outline.e-primary.e-active {
  background-color: #ec618f;
  border-color: transparent;
  box-shadow: none;
  color: #fff;
}

.e-btn.e-outline.e-primary:disabled,
.e-css.e-btn.e-outline.e-primary:disabled {
  background-color: transparent;
  border-color: rgba(0, 0, 0, 0.26);
  box-shadow: none;
  color: rgba(0, 0, 0, 0.26);
}

.e-btn.e-outline.e-success,
.e-css.e-btn.e-outline.e-success {
  background-color: transparent;
  border-color: #4d841d;
  color: #4d841d;
}

.e-btn.e-outline.e-success:hover,
.e-css.e-btn.e-outline.e-success:hover {
  background-color: #629338;
  border-color: transparent;
  color: #fff;
}

.e-btn.e-outline.e-success:focus,
.e-css.e-btn.e-outline.e-success:focus {
  background-color: #78a253;
  border-color: transparent;
  color: #fff;
}

.e-btn.e-outline.e-success:active, .e-btn.e-outline.e-success.e-active,
.e-css.e-btn.e-outline.e-success:active,
.e-css.e-btn.e-outline.e-success.e-active {
  background-color: #86ab65;
  border-color: transparent;
  box-shadow: none;
  color: #fff;
}

.e-btn.e-outline.e-success:disabled,
.e-css.e-btn.e-outline.e-success:disabled {
  background-color: transparent;
  border-color: rgba(0, 0, 0, 0.26);
  box-shadow: none;
  color: rgba(0, 0, 0, 0.26);
}

.e-btn.e-outline.e-info,
.e-css.e-btn.e-outline.e-info {
  background-color: transparent;
  border-color: #0378d5;
  color: #0378d5;
}

.e-btn.e-outline.e-info:hover,
.e-css.e-btn.e-outline.e-info:hover {
  background-color: #2188da;
  border-color: transparent;
  color: #fff;
}

.e-btn.e-outline.e-info:focus,
.e-css.e-btn.e-outline.e-info:focus {
  background-color: #2188da;
  border-color: transparent;
  color: #fff;
}

.e-btn.e-outline.e-info:active, .e-btn.e-outline.e-info.e-active,
.e-css.e-btn.e-outline.e-info:active,
.e-css.e-btn.e-outline.e-info.e-active {
  background-color: #54a3e2;
  border-color: transparent;
  box-shadow: none;
  color: #fff;
}

.e-btn.e-outline.e-info:disabled,
.e-css.e-btn.e-outline.e-info:disabled {
  background-color: transparent;
  border-color: rgba(0, 0, 0, 0.26);
  box-shadow: none;
  color: rgba(0, 0, 0, 0.26);
}

.e-btn.e-outline.e-warning,
.e-css.e-btn.e-outline.e-warning {
  background-color: transparent;
  border-color: #c15700;
  color: #c15700;
}

.e-btn.e-outline.e-warning:hover,
.e-css.e-btn.e-outline.e-warning:hover {
  background-color: #c86b1f;
  border-color: transparent;
  color: #fff;
}

.e-btn.e-outline.e-warning:focus,
.e-css.e-btn.e-outline.e-warning:focus {
  background-color: #c86b1f;
  border-color: transparent;
  color: #fff;
}

.e-btn.e-outline.e-warning:active, .e-btn.e-outline.e-warning.e-active,
.e-css.e-btn.e-outline.e-warning:active,
.e-css.e-btn.e-outline.e-warning.e-active {
  background-color: #d58d52;
  border-color: transparent;
  box-shadow: none;
  color: #fff;
}

.e-btn.e-outline.e-warning:disabled,
.e-css.e-btn.e-outline.e-warning:disabled {
  background-color: transparent;
  border-color: rgba(0, 0, 0, 0.26);
  box-shadow: none;
  color: rgba(0, 0, 0, 0.26);
}

.e-btn.e-outline.e-danger,
.e-css.e-btn.e-outline.e-danger {
  background-color: transparent;
  border-color: #d64113;
  color: #d64113;
}

.e-btn.e-outline.e-danger:hover,
.e-css.e-btn.e-outline.e-danger:hover {
  background-color: #db582f;
  border-color: transparent;
  color: #fff;
}

.e-btn.e-outline.e-danger:focus,
.e-css.e-btn.e-outline.e-danger:focus {
  background-color: #db582f;
  border-color: transparent;
  color: #fff;
}

.e-btn.e-outline.e-danger:active, .e-btn.e-outline.e-danger.e-active,
.e-css.e-btn.e-outline.e-danger:active,
.e-css.e-btn.e-outline.e-danger.e-active {
  background-color: #e37e5f;
  border-color: transparent;
  box-shadow: none;
  color: #fff;
}

.e-btn.e-outline.e-danger:disabled,
.e-css.e-btn.e-outline.e-danger:disabled {
  background-color: transparent;
  border-color: rgba(0, 0, 0, 0.26);
  box-shadow: none;
  color: rgba(0, 0, 0, 0.26);
}

.e-btn.e-link,
.e-css.e-btn.e-link {
  background-color: transparent;
  border-color: transparent;
  border-radius: 0;
  box-shadow: none;
  color: #0d47a1;
}

.e-btn.e-link:hover, .e-btn.e-link:focus,
.e-css.e-btn.e-link:hover,
.e-css.e-btn.e-link:focus {
  border-radius: 0;
  color: #0a3576;
  text-decoration: underline;
}

.e-btn.e-link:disabled,
.e-css.e-btn.e-link:disabled {
  background-color: transparent;
  box-shadow: none;
  color: rgba(0, 0, 0, 0.26);
  text-decoration: none;
}

.e-btn-group {
  display: -ms-inline-flexbox;
  display: inline-flex;
  border-radius: 2px;
  -ms-flex-direction: row;
      flex-direction: row;
  position: relative;
}

.e-btn-group input:focus + label.e-btn,
.e-btn-group .e-btn:focus,
.e-btn-group .e-btn:hover {
  z-index: 2;
}

.e-btn-group input + label.e-btn {
  margin-bottom: 0;
}

.e-btn-group input {
  -moz-appearance: none;
  height: 1px;
  margin: 0 0 0 -1px;
  opacity: 0;
  position: absolute;
  width: 1px;
}

.e-btn-group input:disabled + label.e-btn,
.e-btn-group :disabled {
  cursor: default;
  pointer-events: none;
}

.e-btn-group .e-btn-icon {
  font-size: 14px;
}

.e-btn-group:not(.e-rtl):not(.e-vertical) .e-btn {
  margin-left: 0;
}

.e-btn-group:not(.e-rtl):not(.e-vertical) .e-btn:not(:first-of-type):not(:last-of-type) {
  border-radius: 0;
}

.e-btn-group:not(.e-rtl):not(.e-vertical) .e-btn:first-of-type {
  border-bottom-right-radius: 0;
  border-top-right-radius: 0;
}

.e-btn-group:not(.e-rtl):not(.e-vertical) .e-btn:last-of-type {
  border-bottom-left-radius: 0;
  border-top-left-radius: 0;
}

.e-btn-group:not(.e-rtl):not(.e-vertical) .e-btn:last-of-type:not(:last-child) {
  border-bottom-right-radius: 0;
  border-top-right-radius: 0;
}

.e-btn-group:not(.e-rtl):not(.e-vertical) .e-split-btn-wrapper + .e-btn {
  border-bottom-left-radius: 0;
  border-top-left-radius: 0;
}

.e-btn-group:not(.e-rtl):not(.e-vertical) .e-split-btn-wrapper:not(:first-child):not(:last-child) .e-btn:last-child {
  border-bottom-right-radius: 0;
  border-top-right-radius: 0;
}

.e-btn-group:not(.e-rtl):not(.e-vertical) .e-split-btn-wrapper:not(:first-child):not(:last-child) .e-btn:first-child {
  border-bottom-left-radius: 0;
  border-top-left-radius: 0;
}

.e-btn-group:not(.e-rtl):not(.e-vertical) .e-split-btn-wrapper:first-child .e-btn:last-child {
  border-bottom-right-radius: 0;
  border-top-right-radius: 0;
}

.e-btn-group:not(.e-rtl):not(.e-vertical) .e-split-btn-wrapper:last-child .e-btn:first-child {
  border-bottom-left-radius: 0;
  border-top-left-radius: 0;
}

.e-btn-group.e-rtl .e-btn {
  margin-left: 0;
}

.e-btn-group.e-rtl .e-btn:not(:first-of-type):not(:last-of-type) {
  border-radius: 0;
}

.e-btn-group.e-rtl .e-btn:first-of-type {
  border-bottom-left-radius: 0;
  border-top-left-radius: 0;
}

.e-btn-group.e-rtl .e-btn:last-of-type {
  border-bottom-right-radius: 0;
  border-top-right-radius: 0;
}

.e-btn-group.e-rtl .e-btn:last-of-type:not(:last-child) {
  border-bottom-left-radius: 0;
  border-top-left-radius: 0;
}

.e-btn-group.e-rtl .e-split-btn-wrapper + .e-btn {
  border-bottom-right-radius: 0;
  border-top-right-radius: 0;
}

.e-btn-group.e-rtl .e-split-btn-wrapper:not(:first-child):not(:last-child) .e-btn:last-child {
  border-bottom-left-radius: 0;
  border-top-left-radius: 0;
}

.e-btn-group.e-rtl .e-split-btn-wrapper:not(:first-child):not(:last-child) .e-btn:first-child {
  border-bottom-right-radius: 0;
  border-top-right-radius: 0;
}

.e-btn-group.e-rtl .e-split-btn-wrapper:first-child .e-btn:last-child {
  border-bottom-left-radius: 0;
  border-top-left-radius: 0;
}

.e-btn-group.e-rtl .e-split-btn-wrapper:last-child .e-btn:first-child {
  border-bottom-right-radius: 0;
  border-top-right-radius: 0;
}

.e-btn-group.e-vertical {
  -ms-flex-direction: column;
      flex-direction: column;
}

.e-btn-group.e-vertical input {
  margin: -1px 0 0;
}

.e-btn-group.e-vertical .e-btn:not(.e-outline) {
  margin-top: -1px;
}

.e-btn-group.e-vertical .e-btn:not(:first-of-type):not(:last-of-type) {
  border-radius: 0;
}

.e-btn-group.e-vertical .e-btn:first-of-type {
  border-bottom-left-radius: 0;
  border-bottom-right-radius: 0;
  border-top-left-radius: 2px;
  border-top-right-radius: 2px;
}

.e-btn-group.e-vertical .e-btn:last-of-type {
  border-bottom-left-radius: 2px;
  border-bottom-right-radius: 2px;
  border-top-left-radius: 0;
  border-top-right-radius: 0;
}

.e-btn-group.e-round-corner:not(.e-vertical):not(.e-rtl) {
  border-radius: 20px;
}

.e-btn-group.e-round-corner:not(.e-vertical):not(.e-rtl) .e-btn:first-of-type {
  border-bottom-left-radius: 20px;
  border-top-left-radius: 20px;
}

.e-btn-group.e-round-corner:not(.e-vertical):not(.e-rtl) .e-btn:last-of-type {
  border-bottom-right-radius: 20px;
  border-top-right-radius: 20px;
}

.e-btn-group.e-round-corner:not(.e-vertical):not(.e-rtl) .e-btn:last-of-type:not(:last-child) {
  border-bottom-right-radius: 0;
  border-top-right-radius: 0;
}

.e-btn-group.e-round-corner:not(.e-vertical):not(.e-rtl) .e-split-btn-wrapper + .e-btn {
  border-bottom-left-radius: 0;
  border-top-left-radius: 0;
}

.e-btn-group.e-round-corner:not(.e-vertical):not(.e-rtl) .e-split-btn-wrapper:first-child .e-btn:first-child {
  border-bottom-left-radius: 20px;
  border-top-left-radius: 20px;
}

.e-btn-group.e-round-corner:not(.e-vertical):not(.e-rtl) .e-split-btn-wrapper:first-child .e-btn:last-child {
  border-bottom-right-radius: 0;
  border-top-right-radius: 0;
}

.e-btn-group.e-round-corner:not(.e-vertical):not(.e-rtl) .e-split-btn-wrapper:last-child .e-btn:first-child {
  border-bottom-left-radius: 0;
  border-top-left-radius: 0;
}

.e-btn-group.e-round-corner:not(.e-vertical):not(.e-rtl) .e-split-btn-wrapper:last-child .e-btn:last-child {
  border-bottom-right-radius: 20px;
  border-top-right-radius: 20px;
}

.e-btn-group.e-round-corner:not(.e-vertical).e-rtl {
  border-radius: 20px;
}

.e-btn-group.e-round-corner:not(.e-vertical).e-rtl .e-btn:first-of-type {
  border-bottom-right-radius: 20px;
  border-top-right-radius: 20px;
}

.e-btn-group.e-round-corner:not(.e-vertical).e-rtl .e-btn:last-of-type {
  border-bottom-left-radius: 20px;
  border-top-left-radius: 20px;
}

.e-btn-group.e-round-corner:not(.e-vertical).e-rtl .e-btn:last-of-type:not(:last-child) {
  border-bottom-left-radius: 0;
  border-top-left-radius: 0;
}

.e-btn-group.e-round-corner:not(.e-vertical).e-rtl .e-btn:first-of-type:not(:first-child) {
  border-bottom-right-radius: 0;
  border-top-right-radius: 0;
}

.e-bigger .e-btn-group .e-btn-icon,
.e-bigger.e-btn-group .e-btn-icon {
  font-size: 16px;
}

.e-btn-group:not(.e-outline) {
  box-shadow: 0 3px 1px -2px rgba(0, 0, 0, 0.2), 0 2px 2px 0 rgba(0, 0, 0, 0.14), 0 1px 5px 0 rgba(0, 0, 0, 0.12);
}

.e-btn-group .e-btn {
  box-shadow: none;
}

.e-btn-group .e-btn:hover {
  box-shadow: none;
}

.e-btn-group .e-btn:focus,
.e-btn-group input:focus + label.e-btn {
  background-color: rgba(201, 201, 201, 0.9688);
  border-color: transparent;
  box-shadow: 0 2px 4px -1px rgba(0, 0, 0, 0.2), 0 4px 5px 0 rgba(0, 0, 0, 0.14), 0 1px 10px 0 rgba(0, 0, 0, 0.12);
  color: rgba(0, 0, 0, 0.87);
  outline: #fafafa 0 solid;
  outline-offset: 0;
  box-shadow: none;
  outline-color: none;
}

.e-btn-group .e-btn:focus.e-primary,
.e-btn-group input:focus + label.e-btn.e-primary {
  background-color: #ea4e82;
  border-color: transparent;
  box-shadow: 0 2px 4px -1px rgba(0, 0, 0, 0.2), 0 4px 5px 0 rgba(0, 0, 0, 0.14), 0 1px 10px 0 rgba(0, 0, 0, 0.12);
  color: #fff;
  outline: #fafafa 0 solid;
  box-shadow: none;
  outline-color: none;
}

.e-btn-group .e-btn:focus.e-success,
.e-btn-group input:focus + label.e-btn.e-success {
  background-color: #78a253;
  border-color: transparent;
  box-shadow: 0 2px 4px -1px rgba(0, 0, 0, 0.2), 0 4px 5px 0 rgba(0, 0, 0, 0.14), 0 1px 10px 0 rgba(0, 0, 0, 0.12);
  color: #fff;
  box-shadow: none;
  outline-color: none;
}

.e-btn-group .e-btn:focus.e-info,
.e-btn-group input:focus + label.e-btn.e-info {
  background-color: #3f98df;
  border-color: transparent;
  box-shadow: 0 2px 4px -1px rgba(0, 0, 0, 0.2), 0 4px 5px 0 rgba(0, 0, 0, 0.14), 0 1px 10px 0 rgba(0, 0, 0, 0.12);
  color: #fff;
  box-shadow: none;
  outline-color: none;
}

.e-btn-group .e-btn:focus.e-warning,
.e-btn-group input:focus + label.e-btn.e-warning {
  background-color: #d07f3d;
  border-color: transparent;
  box-shadow: 0 2px 4px -1px rgba(0, 0, 0, 0.2), 0 4px 5px 0 rgba(0, 0, 0, 0.14), 0 1px 10px 0 rgba(0, 0, 0, 0.12);
  color: #fff;
  box-shadow: none;
  outline-color: none;
}

.e-btn-group .e-btn:focus.e-danger,
.e-btn-group input:focus + label.e-btn.e-danger {
  background-color: #e06f4c;
  border-color: transparent;
  box-shadow: 0 2px 4px -1px rgba(0, 0, 0, 0.2), 0 4px 5px 0 rgba(0, 0, 0, 0.14), 0 1px 10px 0 rgba(0, 0, 0, 0.12);
  color: #fff;
  box-shadow: none;
  outline-color: none;
}

.e-btn-group .e-btn:focus.e-link,
.e-btn-group input:focus + label.e-btn.e-link {
  border-radius: 0;
  color: #0a3576;
  text-decoration: underline;
  background-color: transparent;
  border-color: transparent;
  box-shadow: none;
  outline: none;
}

.e-btn-group .e-btn:focus.e-outline,
.e-btn-group input:focus + label.e-btn.e-outline {
  background-color: rgba(0, 0, 0, 0.24);
  border-color: transparent;
  box-shadow: 0 2px 4px -1px rgba(0, 0, 0, 0.2), 0 4px 5px 0 rgba(0, 0, 0, 0.14), 0 1px 10px 0 rgba(0, 0, 0, 0.12);
  color: rgba(0, 0, 0, 0.87);
  box-shadow: none;
}

.e-btn-group .e-btn:focus.e-outline.e-primary,
.e-btn-group input:focus + label.e-btn.e-outline.e-primary {
  background-color: #ea4e82;
  border-color: transparent;
  color: #fff;
  box-shadow: none;
}

.e-btn-group .e-btn:focus.e-outline.e-success,
.e-btn-group input:focus + label.e-btn.e-outline.e-success {
  background-color: #78a253;
  border-color: transparent;
  color: #fff;
  box-shadow: none;
}

.e-btn-group .e-btn:focus.e-outline.e-info,
.e-btn-group input:focus + label.e-btn.e-outline.e-info {
  background-color: #2188da;
  border-color: transparent;
  color: #fff;
  box-shadow: none;
}

.e-btn-group .e-btn:focus.e-outline.e-warning,
.e-btn-group input:focus + label.e-btn.e-outline.e-warning {
  background-color: #c86b1f;
  border-color: transparent;
  color: #fff;
  box-shadow: none;
}

.e-btn-group .e-btn:focus.e-outline.e-danger,
.e-btn-group input:focus + label.e-btn.e-outline.e-danger {
  background-color: #db582f;
  border-color: transparent;
  color: #fff;
  box-shadow: none;
}

.e-btn-group .e-btn:active,
.e-btn-group input:active + label.e-btn,
.e-btn-group input:checked + label.e-btn {
  background-color: rgba(184, 184, 184, 0.9584);
  border-color: transparent;
  box-shadow: 0 5px 5px -3px rgba(0, 0, 0, 0.2), 0 8px 10px 1px rgba(0, 0, 0, 0.14), 0 3px 14px 2px rgba(0, 0, 0, 0.12);
  color: rgba(0, 0, 0, 0.87);
  outline: #fafafa 0 solid;
  outline-offset: 0;
  box-shadow: none;
}

.e-btn-group .e-btn:active.e-primary,
.e-btn-group input:active + label.e-btn.e-primary,
.e-btn-group input:checked + label.e-btn.e-primary {
  background-color: #ec618f;
  border-color: transparent;
  box-shadow: 0 5px 5px -3px rgba(0, 0, 0, 0.2), 0 8px 10px 1px rgba(0, 0, 0, 0.14), 0 3px 14px 2px rgba(0, 0, 0, 0.12);
  color: #fff;
  outline: #fafafa 0 solid;
  box-shadow: none;
}

.e-btn-group .e-btn:active.e-success,
.e-btn-group input:active + label.e-btn.e-success,
.e-btn-group input:checked + label.e-btn.e-success {
  background-color: #86ab65;
  border-color: transparent;
  box-shadow: 0 5px 5px -3px rgba(0, 0, 0, 0.2), 0 8px 10px 1px rgba(0, 0, 0, 0.14), 0 3px 14px 2px rgba(0, 0, 0, 0.12);
  color: #fff;
  box-shadow: none;
}

.e-btn-group .e-btn:active.e-info,
.e-btn-group input:active + label.e-btn.e-info,
.e-btn-group input:checked + label.e-btn.e-info {
  background-color: #54a3e2;
  border-color: transparent;
  box-shadow: 0 5px 5px -3px rgba(0, 0, 0, 0.2), 0 8px 10px 1px rgba(0, 0, 0, 0.14), 0 3px 14px 2px rgba(0, 0, 0, 0.12);
  color: #fff;
  box-shadow: none;
}

.e-btn-group .e-btn:active.e-warning,
.e-btn-group input:active + label.e-btn.e-warning,
.e-btn-group input:checked + label.e-btn.e-warning {
  background-color: #d58d52;
  border-color: transparent;
  box-shadow: 0 5px 5px -3px rgba(0, 0, 0, 0.2), 0 8px 10px 1px rgba(0, 0, 0, 0.14), 0 3px 14px 2px rgba(0, 0, 0, 0.12);
  color: #fff;
  box-shadow: none;
}

.e-btn-group .e-btn:active.e-danger,
.e-btn-group input:active + label.e-btn.e-danger,
.e-btn-group input:checked + label.e-btn.e-danger {
  background-color: #e37e5f;
  border-color: transparent;
  box-shadow: 0 5px 5px -3px rgba(0, 0, 0, 0.2), 0 8px 10px 1px rgba(0, 0, 0, 0.14), 0 3px 14px 2px rgba(0, 0, 0, 0.12);
  color: #fff;
  box-shadow: none;
}

.e-btn-group .e-btn:active.e-outline,
.e-btn-group input:active + label.e-btn.e-outline,
.e-btn-group input:checked + label.e-btn.e-outline {
  background-color: rgba(0, 0, 0, 0.32);
  border-color: #adadad;
  box-shadow: none;
  color: rgba(0, 0, 0, 0.87);
  box-shadow: none;
}

.e-btn-group .e-btn:active.e-outline.e-primary,
.e-btn-group input:active + label.e-btn.e-outline.e-primary,
.e-btn-group input:checked + label.e-btn.e-outline.e-primary {
  background-color: #ec618f;
  border-color: transparent;
  box-shadow: none;
  color: #fff;
  box-shadow: none;
}

.e-btn-group .e-btn:active.e-outline.e-success,
.e-btn-group input:active + label.e-btn.e-outline.e-success,
.e-btn-group input:checked + label.e-btn.e-outline.e-success {
  background-color: #86ab65;
  border-color: transparent;
  box-shadow: none;
  color: #fff;
  box-shadow: none;
}

.e-btn-group .e-btn:active.e-outline.e-info,
.e-btn-group input:active + label.e-btn.e-outline.e-info,
.e-btn-group input:checked + label.e-btn.e-outline.e-info {
  background-color: #54a3e2;
  border-color: transparent;
  box-shadow: none;
  color: #fff;
  box-shadow: none;
}

.e-btn-group .e-btn:active.e-outline.e-warning,
.e-btn-group input:active + label.e-btn.e-outline.e-warning,
.e-btn-group input:checked + label.e-btn.e-outline.e-warning {
  background-color: #d58d52;
  border-color: transparent;
  box-shadow: none;
  color: #fff;
  box-shadow: none;
}

.e-btn-group .e-btn:active.e-outline.e-danger,
.e-btn-group input:active + label.e-btn.e-outline.e-danger,
.e-btn-group input:checked + label.e-btn.e-outline.e-danger {
  background-color: #e37e5f;
  border-color: transparent;
  box-shadow: none;
  color: #fff;
  box-shadow: none;
}

.e-btn-group .e-btn:disabled,
.e-btn-group input:disabled + label.e-btn {
  background-color: rgba(0, 0, 0, 0.12);
  border-color: transparent;
  box-shadow: none;
  color: rgba(0, 0, 0, 0.26);
  border-color: transparent;
}

.e-btn-group .e-btn:disabled.e-primary,
.e-btn-group input:disabled + label.e-btn.e-primary {
  background-color: rgba(0, 0, 0, 0.12);
  border-color: transparent;
  box-shadow: none;
  color: rgba(0, 0, 0, 0.26);
  border-color: transparent;
}

.e-btn-group .e-btn:disabled.e-success,
.e-btn-group input:disabled + label.e-btn.e-success {
  background-color: rgba(0, 0, 0, 0.12);
  border-color: transparent;
  box-shadow: none;
  color: rgba(0, 0, 0, 0.26);
  border-color: transparent;
}

.e-btn-group .e-btn:disabled.e-info,
.e-btn-group input:disabled + label.e-btn.e-info {
  background-color: rgba(0, 0, 0, 0.12);
  border-color: transparent;
  box-shadow: none;
  color: rgba(0, 0, 0, 0.26);
  border-color: transparent;
}

.e-btn-group .e-btn:disabled.e-warning,
.e-btn-group input:disabled + label.e-btn.e-warning {
  background-color: rgba(0, 0, 0, 0.12);
  border-color: transparent;
  box-shadow: none;
  color: rgba(0, 0, 0, 0.26);
  border-color: transparent;
}

.e-btn-group .e-btn:disabled.e-danger,
.e-btn-group input:disabled + label.e-btn.e-danger {
  background-color: rgba(0, 0, 0, 0.12);
  border-color: transparent;
  box-shadow: none;
  color: rgba(0, 0, 0, 0.26);
  border-color: transparent;
}

.e-btn-group .e-btn:disabled.e-link,
.e-btn-group input:disabled + label.e-btn.e-link {
  background-color: transparent;
  box-shadow: none;
  color: rgba(0, 0, 0, 0.26);
  text-decoration: none;
  border-color: transparent;
}

.e-btn-group .e-btn:disabled.e-outline,
.e-btn-group input:disabled + label.e-btn.e-outline {
  background-color: transparent;
  border-color: rgba(0, 0, 0, 0.26);
  box-shadow: none;
  color: rgba(0, 0, 0, 0.26);
  border-color: #adadad;
}

.e-btn-group .e-btn:disabled.e-outline.e-primary,
.e-btn-group input:disabled + label.e-btn.e-outline.e-primary {
  background-color: transparent;
  border-color: rgba(0, 0, 0, 0.26);
  box-shadow: none;
  color: rgba(0, 0, 0, 0.26);
  border-color: #e3165b;
}

.e-btn-group .e-btn:disabled.e-outline.e-success,
.e-btn-group input:disabled + label.e-btn.e-outline.e-success {
  background-color: transparent;
  border-color: rgba(0, 0, 0, 0.26);
  box-shadow: none;
  color: rgba(0, 0, 0, 0.26);
  border-color: #4d841d;
}

.e-btn-group .e-btn:disabled.e-outline.e-info,
.e-btn-group input:disabled + label.e-btn.e-outline.e-info {
  background-color: transparent;
  border-color: rgba(0, 0, 0, 0.26);
  box-shadow: none;
  color: rgba(0, 0, 0, 0.26);
  border-color: #0378d5;
}

.e-btn-group .e-btn:disabled.e-outline.e-warning,
.e-btn-group input:disabled + label.e-btn.e-outline.e-warning {
  background-color: transparent;
  border-color: rgba(0, 0, 0, 0.26);
  box-shadow: none;
  color: rgba(0, 0, 0, 0.26);
  border-color: #c15700;
}

.e-btn-group .e-btn:disabled.e-outline.e-danger,
.e-btn-group input:disabled + label.e-btn.e-outline.e-danger {
  background-color: transparent;
  border-color: rgba(0, 0, 0, 0.26);
  box-shadow: none;
  color: rgba(0, 0, 0, 0.26);
  border-color: #d64113;
}

.e-btn-group:not(.e-vertical):not(.e-rtl) .e-outline:not(:first-of-type):not(:last-of-type) {
  border-left: transparent;
  border-right: transparent;
}

.e-btn-group:not(.e-vertical):not(.e-rtl) .e-outline:first-of-type {
  border-right: transparent;
}

.e-btn-group:not(.e-vertical):not(.e-rtl) .e-outline:last-of-type {
  border-left: transparent;
}

.e-btn-group:not(.e-vertical):not(.e-rtl) .e-btn:focus.e-outline,
.e-btn-group:not(.e-vertical):not(.e-rtl) input:focus + label.e-btn.e-outline {
  border-color: transparent;
  outline-color: none;
}

.e-btn-group:not(.e-vertical):not(.e-rtl) .e-btn:focus.e-outline.e-primary,
.e-btn-group:not(.e-vertical):not(.e-rtl) input:focus + label.e-btn.e-outline.e-primary {
  border-color: transparent;
  outline-color: none;
}

.e-btn-group:not(.e-vertical):not(.e-rtl) .e-btn:focus.e-outline.e-success,
.e-btn-group:not(.e-vertical):not(.e-rtl) input:focus + label.e-btn.e-outline.e-success {
  border-color: transparent;
  outline-color: none;
}

.e-btn-group:not(.e-vertical):not(.e-rtl) .e-btn:focus.e-outline.e-info,
.e-btn-group:not(.e-vertical):not(.e-rtl) input:focus + label.e-btn.e-outline.e-info {
  border-color: transparent;
  outline-color: none;
}

.e-btn-group:not(.e-vertical):not(.e-rtl) .e-btn:focus.e-outline.e-warning,
.e-btn-group:not(.e-vertical):not(.e-rtl) input:focus + label.e-btn.e-outline.e-warning {
  border-color: transparent;
  outline-color: none;
}

.e-btn-group:not(.e-vertical):not(.e-rtl) .e-btn:focus.e-outline.e-danger,
.e-btn-group:not(.e-vertical):not(.e-rtl) input:focus + label.e-btn.e-outline.e-danger {
  border-color: transparent;
  outline-color: none;
}

.e-btn-group:not(.e-vertical):not(.e-rtl) .e-btn:active.e-outline,
.e-btn-group:not(.e-vertical):not(.e-rtl) input:active + label.e-btn.e-outline,
.e-btn-group:not(.e-vertical):not(.e-rtl) input:checked + label.e-btn.e-outline {
  border-color: transparent;
}

.e-btn-group:not(.e-vertical):not(.e-rtl) .e-btn:active.e-outline.e-primary,
.e-btn-group:not(.e-vertical):not(.e-rtl) input:active + label.e-btn.e-outline.e-primary,
.e-btn-group:not(.e-vertical):not(.e-rtl) input:checked + label.e-btn.e-outline.e-primary {
  border-color: transparent;
}

.e-btn-group:not(.e-vertical):not(.e-rtl) .e-btn:active.e-outline.e-success,
.e-btn-group:not(.e-vertical):not(.e-rtl) input:active + label.e-btn.e-outline.e-success,
.e-btn-group:not(.e-vertical):not(.e-rtl) input:checked + label.e-btn.e-outline.e-success {
  border-color: transparent;
}

.e-btn-group:not(.e-vertical):not(.e-rtl) .e-btn:active.e-outline.e-info,
.e-btn-group:not(.e-vertical):not(.e-rtl) input:active + label.e-btn.e-outline.e-info,
.e-btn-group:not(.e-vertical):not(.e-rtl) input:checked + label.e-btn.e-outline.e-info {
  border-color: transparent;
}

.e-btn-group:not(.e-vertical):not(.e-rtl) .e-btn:active.e-outline.e-warning,
.e-btn-group:not(.e-vertical):not(.e-rtl) input:active + label.e-btn.e-outline.e-warning,
.e-btn-group:not(.e-vertical):not(.e-rtl) input:checked + label.e-btn.e-outline.e-warning {
  border-color: transparent;
}

.e-btn-group:not(.e-vertical):not(.e-rtl) .e-btn:active.e-outline.e-danger,
.e-btn-group:not(.e-vertical):not(.e-rtl) input:active + label.e-btn.e-outline.e-danger,
.e-btn-group:not(.e-vertical):not(.e-rtl) input:checked + label.e-btn.e-outline.e-danger {
  border-color: transparent;
}

.e-btn-group.e-vertical:not(.e-rtl) .e-outline:not(:first-of-type):not(:last-of-type) {
  border-bottom: transparent;
  border-top: transparent;
}

.e-btn-group.e-vertical:not(.e-rtl) .e-outline:first-of-type {
  border-bottom: transparent;
}

.e-btn-group.e-vertical:not(.e-rtl) .e-outline:last-of-type {
  border-top: transparent;
}

.e-btn-group.e-vertical:not(.e-rtl) .e-btn:focus.e-outline,
.e-btn-group.e-vertical:not(.e-rtl) input:focus + label.e-btn.e-outline {
  border-color: transparent;
  outline-color: none;
}

.e-btn-group.e-vertical:not(.e-rtl) .e-btn:focus.e-outline.e-primary,
.e-btn-group.e-vertical:not(.e-rtl) input:focus + label.e-btn.e-outline.e-primary {
  border-color: transparent;
  outline-color: none;
}

.e-btn-group.e-vertical:not(.e-rtl) .e-btn:focus.e-outline.e-success,
.e-btn-group.e-vertical:not(.e-rtl) input:focus + label.e-btn.e-outline.e-success {
  border-color: transparent;
  outline-color: none;
}

.e-btn-group.e-vertical:not(.e-rtl) .e-btn:focus.e-outline.e-info,
.e-btn-group.e-vertical:not(.e-rtl) input:focus + label.e-btn.e-outline.e-info {
  border-color: transparent;
  outline-color: none;
}

.e-btn-group.e-vertical:not(.e-rtl) .e-btn:focus.e-outline.e-warning,
.e-btn-group.e-vertical:not(.e-rtl) input:focus + label.e-btn.e-outline.e-warning {
  border-color: transparent;
  outline-color: none;
}

.e-btn-group.e-vertical:not(.e-rtl) .e-btn:focus.e-outline.e-danger,
.e-btn-group.e-vertical:not(.e-rtl) input:focus + label.e-btn.e-outline.e-danger {
  border-color: transparent;
  outline-color: none;
}

.e-btn-group.e-vertical:not(.e-rtl) .e-btn:active.e-outline,
.e-btn-group.e-vertical:not(.e-rtl) input:active + label.e-btn.e-outline,
.e-btn-group.e-vertical:not(.e-rtl) input:checked + label.e-btn.e-outline {
  border-color: transparent;
}

.e-btn-group.e-vertical:not(.e-rtl) .e-btn:active.e-outline.e-primary,
.e-btn-group.e-vertical:not(.e-rtl) input:active + label.e-btn.e-outline.e-primary,
.e-btn-group.e-vertical:not(.e-rtl) input:checked + label.e-btn.e-outline.e-primary {
  border-color: transparent;
}

.e-btn-group.e-vertical:not(.e-rtl) .e-btn:active.e-outline.e-success,
.e-btn-group.e-vertical:not(.e-rtl) input:active + label.e-btn.e-outline.e-success,
.e-btn-group.e-vertical:not(.e-rtl) input:checked + label.e-btn.e-outline.e-success {
  border-color: transparent;
}

.e-btn-group.e-vertical:not(.e-rtl) .e-btn:active.e-outline.e-info,
.e-btn-group.e-vertical:not(.e-rtl) input:active + label.e-btn.e-outline.e-info,
.e-btn-group.e-vertical:not(.e-rtl) input:checked + label.e-btn.e-outline.e-info {
  border-color: transparent;
}

.e-btn-group.e-vertical:not(.e-rtl) .e-btn:active.e-outline.e-warning,
.e-btn-group.e-vertical:not(.e-rtl) input:active + label.e-btn.e-outline.e-warning,
.e-btn-group.e-vertical:not(.e-rtl) input:checked + label.e-btn.e-outline.e-warning {
  border-color: transparent;
}

.e-btn-group.e-vertical:not(.e-rtl) .e-btn:active.e-outline.e-danger,
.e-btn-group.e-vertical:not(.e-rtl) input:active + label.e-btn.e-outline.e-danger,
.e-btn-group.e-vertical:not(.e-rtl) input:checked + label.e-btn.e-outline.e-danger {
  border-color: transparent;
}

.e-btn-group.e-rtl .e-btn:not(:first-of-type):not(:last-of-type) {
  border-left: transparent;
  border-right: transparent;
}

.e-btn-group.e-rtl .e-btn:first-of-type {
  border-left: transparent;
}

.e-btn-group.e-rtl .e-btn:last-of-type {
  border-right: transparent;
}

/*! calendar default definitions and variables */
/*! calendar material theme variables */
/*! component icons */
.e-calendar .e-header .e-date-icon-prev::before {
  content: '\e910';
}

.e-calendar .e-header .e-date-icon-next::before {
  content: '\e916';
}

/*! calendar layout */
ejs-calendar {
  display: block;
}

.e-calendar {
  -webkit-tap-highlight-color: transparent;
  border-radius: 2px;
  display: block;
  overflow: auto;
  -webkit-user-select: none;
     -moz-user-select: none;
      -ms-user-select: none;
          user-select: none;
}

.e-calendar.e-rtl .e-header .e-title {
  float: right;
  text-align: right;
}

.e-calendar.e-rtl .e-header .e-icon-container {
  float: left;
}

.e-calendar .e-header {
  background: none;
  display: table;
  font-weight: 500;
  position: relative;
  text-align: center;
  width: 100%;
}

.e-calendar .e-header button {
  background: none;
  border: 0;
  padding: 0;
  text-decoration: none;
}

.e-calendar .e-header span {
  cursor: pointer;
  display: inline-block;
  font-size: 15px;
  font-weight: 500;
  line-height: 16px;
  padding: 10px;
  vertical-align: middle;
}

.e-calendar .e-header span.e-disabled {
  cursor: default;
}

.e-calendar .e-week-header {
  padding: 0;
}

.e-calendar th {
  cursor: default;
  font-size: 13px;
  font-weight: normal;
  text-align: center;
}

.e-calendar .e-content .e-selected,
.e-calendar .e-content .e-state-hover {
  border-radius: 0;
}

.e-calendar .e-content span.e-day {
  border-radius: 0;
  cursor: pointer;
  display: inline-block;
  font-size: 13px;
  overflow: hidden;
  padding: 0;
  text-align: center;
  text-decoration: none;
  vertical-align: middle;
}

.e-calendar .e-content th,
.e-calendar .e-content td {
  box-sizing: border-box;
}

.e-calendar .e-content td.e-disabled {
  opacity: 0.35;
  pointer-events: none;
  -ms-touch-action: none;
      touch-action: none;
}

.e-calendar .e-content td {
  cursor: pointer;
  padding: 2px;
  text-align: center;
}

.e-calendar .e-content td.e-week-number {
  color: rgba(0, 0, 0, 0.87);
  font-family: italic;
  font-size: 12px;
  font-weight: 500;
}

.e-calendar .e-content td.e-overlay {
  background: none;
}

.e-calendar .e-content table {
  border-collapse: separate;
  border-spacing: 0;
  border-width: 0;
  float: left;
  margin: 0;
  outline: 0;
  padding: 0 10px 10px;
  table-layout: fixed;
  width: 100%;
}

.e-calendar .e-content td.e-other-month > span.e-day {
  display: none;
  font-weight: normal;
}

.e-calendar .e-content tr.e-month-hide {
  display: none;
  font-weight: normal;
}

.e-calendar .e-content tr.e-month-hide,
.e-calendar .e-content td.e-other-month {
  pointer-events: none;
  -ms-touch-action: none;
      touch-action: none;
}

.e-calendar .e-content tr.e-month-hide,
.e-calendar .e-content td.e-other-month.e-disabled {
  pointer-events: none;
  -ms-touch-action: none;
      touch-action: none;
}

.e-calendar .e-content td.e-week-number:hover span.e-day,
.e-calendar .e-content td.e-week-number:hover {
  background-color: #fff;
  cursor: default;
}

.e-calendar .e-header .e-prev,
.e-calendar .e-header .e-next {
  border-radius: 50%;
  display: inline-block;
  font-size: 14px;
  vertical-align: middle;
}

.e-calendar .e-header .e-title {
  cursor: pointer;
  display: inline-block;
  float: left;
  font-size: 14px;
  font-weight: 500;
  text-align: left;
}

.e-calendar .e-header .e-title {
  margin-left: 5px;
}

.e-calendar .e-header .e-prev:hover,
.e-calendar .e-header .e-next:hover {
  cursor: pointer;
}

.e-calendar .e-header .e-prev.e-overlay,
.e-calendar .e-header .e-next.e-overlay {
  background: none;
}

.e-calendar .e-header.e-decade .e-title,
.e-calendar .e-header.e-year .e-title {
  margin-left: 5px;
}

.e-calendar .e-header.e-decade .e-title {
  cursor: default;
}

.e-calendar .e-header .e-icon-container {
  display: inline-block;
  float: right;
}

.e-calendar .e-footer-container {
  text-transform: uppercase;
}

.e-calendar {
  max-width: 246px;
  min-width: 240px;
  padding: 0;
}

.e-calendar.e-week-number {
  min-width: 262px;
}

.e-calendar.e-week {
  max-width: 246px;
  min-width: 240px;
}

.e-calendar .e-header .e-title {
  line-height: 40px;
}

.e-calendar.e-rtl .e-header .e-title {
  text-align: right;
  text-indent: 4px;
}

.e-calendar .e-header {
  height: 40px;
}

.e-calendar .e-header.e-month {
  padding: 10px 10px 0 10px;
}

.e-calendar .e-header.e-year, .e-calendar .e-header.e-decade {
  padding: 10px 10px 0 10px;
}

.e-calendar th {
  font-weight: normal;
  height: 30px;
}

.e-calendar .e-content .e-selected,
.e-calendar .e-content .e-state-hover {
  border-radius: 0;
}

.e-calendar .e-content span.e-day {
  border: none;
  font-size: 13px;
  font-weight: normal;
  height: 30px;
  line-height: 30px;
  width: 30px;
}

.e-calendar .e-content.e-year table,
.e-calendar .e-content.e-decade table {
  border-spacing: 0;
  padding: 10px;
}

.e-calendar .e-content.e-month td {
  height: 30px;
  padding: 2px;
}

.e-calendar .e-content .tfooter > tr > td {
  height: 36px;
  line-height: 36px;
}

.e-calendar .e-content.e-year td,
.e-calendar .e-content.e-decade td {
  height: 45px;
  padding: 6px;
}

.e-calendar .e-content.e-year td > span.e-day,
.e-calendar .e-content.e-decade td > span.e-day {
  font-weight: normal;
  height: 45px;
  line-height: 45px;
  width: 45px;
}

.e-calendar .e-header .e-icon-container .e-prev,
.e-calendar .e-header .e-icon-container .e-next {
  height: 36px;
  width: 36px;
}

.e-calendar .e-footer-container {
  cursor: default;
  display: -ms-flexbox;
  display: flex;
  -ms-flex-direction: row;
      flex-direction: row;
  -ms-flex-pack: end;
      justify-content: flex-end;
  padding: 0 10px 10px 10px;
  text-align: center;
  width: 100%;
}

.e-bigger.e-calendar,
.e-bigger .e-calendar {
  max-width: 296px;
  min-width: 296px;
  padding: 0;
}

.e-bigger.e-calendar.e-week,
.e-bigger .e-calendar.e-week {
  max-width: 296px;
  min-width: 296px;
}

.e-bigger.e-calendar.e-week-number,
.e-bigger .e-calendar.e-week-number {
  min-width: 320px;
}

.e-bigger.e-calendar .e-header .e-title,
.e-bigger .e-calendar .e-header .e-title {
  font-size: 16px;
  line-height: 48px;
  width: 60%;
}

.e-bigger.e-calendar.e-rtl .e-header .e-title,
.e-bigger .e-calendar.e-rtl .e-header .e-title {
  line-height: 48px;
  text-indent: 6px;
}

.e-bigger.e-calendar .e-header,
.e-bigger .e-calendar .e-header {
  height: 48px;
  padding: 10px 10px 0 16px;
}

.e-bigger.e-calendar .e-header span,
.e-bigger .e-calendar .e-header span {
  font-size: 16px;
  padding: 15px;
}

.e-bigger.e-calendar .e-header.e-year, .e-bigger.e-calendar .e-header.e-decade,
.e-bigger .e-calendar .e-header.e-year,
.e-bigger .e-calendar .e-header.e-decade {
  padding: 10px 10px 0 16px;
}

.e-bigger.e-calendar th,
.e-bigger .e-calendar th {
  font-size: 14px;
  height: 36px;
}

.e-bigger.e-calendar .e-content.e-year span.e-day,
.e-bigger .e-calendar .e-content.e-year span.e-day {
  font-size: 13px;
  font-weight: normal;
}

.e-bigger.e-calendar .e-content.e-month table,
.e-bigger .e-calendar .e-content.e-month table {
  padding: 0 10px 10px;
}

.e-bigger.e-calendar .e-content.e-year table,
.e-bigger.e-calendar .e-content.e-decade table,
.e-bigger .e-calendar .e-content.e-year table,
.e-bigger .e-calendar .e-content.e-decade table {
  padding: 0 10px 10px;
}

.e-bigger.e-calendar .e-content .e-selected,
.e-bigger.e-calendar .e-content .e-state-hover,
.e-bigger .e-calendar .e-content .e-selected,
.e-bigger .e-calendar .e-content .e-state-hover {
  border-radius: 0;
}

.e-bigger.e-calendar .e-content span.e-day,
.e-bigger .e-calendar .e-content span.e-day {
  font-size: 13px;
  height: 36px;
  line-height: 36px;
  width: 36px;
}

.e-bigger.e-calendar .e-content.e-month td,
.e-bigger .e-calendar .e-content.e-month td {
  height: 2px;
  padding: 2px;
}

.e-bigger.e-calendar .e-content.e-year td,
.e-bigger.e-calendar .e-content.e-decade td,
.e-bigger .e-calendar .e-content.e-year td,
.e-bigger .e-calendar .e-content.e-decade td {
  height: 60px;
  padding: 2px;
}

.e-bigger.e-calendar .e-content.e-year td > span.e-day,
.e-bigger.e-calendar .e-content.e-decade td > span.e-day,
.e-bigger .e-calendar .e-content.e-year td > span.e-day,
.e-bigger .e-calendar .e-content.e-decade td > span.e-day {
  height: 60px;
  line-height: 60px;
  width: 60px;
}

.e-bigger.e-calendar .e-header .e-icon-container .e-prev,
.e-bigger.e-calendar .e-header .e-icon-container .e-next,
.e-bigger .e-calendar .e-header .e-icon-container .e-prev,
.e-bigger .e-calendar .e-header .e-icon-container .e-next {
  height: 48px;
  width: 48px;
}

.e-calendar .e-btn.e-today.e-flat.e-disabled,
.e-calendar .e-btn.e-today.e-flat.e-disabled:hover,
.e-calendar .e-btn.e-today.e-flat.e-disabled:active,
.e-calendar .e-btn.e-today.e-flat.e-disabled:focus,
.e-calendar .e-btn.e-today.e-flat.e-disabled:hover:active {
  background: transparent;
  border-color: transparent;
  box-shadow: none;
  color: rgba(0, 0, 0, 0.26);
  cursor: default;
  opacity: 0.35;
  outline: none;
  pointer-events: none;
  -ms-touch-action: none;
      touch-action: none;
}

.e-calendar {
  background-color: #fff;
  border: 1px solid rgba(0, 0, 0, 0.12);
  box-shadow: #e0e0e0;
}

.e-calendar .e-date-icon-prev,
.e-calendar .e-date-icon-next {
  color: rgba(0, 0, 0, 0.54);
}

.e-calendar th {
  border-bottom: 0;
  color: rgba(0, 0, 0, 0.54);
}

.e-calendar .e-header {
  border-bottom: 0;
}

.e-calendar .e-header a span {
  border: none;
  color: rgba(0, 0, 0, 0.75);
}

.e-calendar .e-header .e-title {
  color: rgba(0, 0, 0, 0.75);
}

.e-calendar .e-header .e-title:hover {
  color: rgba(0, 0, 0, 0.75);
  cursor: pointer;
  text-decoration: none;
}

.e-calendar .e-header .e-prev:hover > span,
.e-calendar .e-header .e-next:hover > span {
  border: none;
  color: rgba(0, 0, 0, 0.75);
  cursor: pointer;
}

.e-calendar .e-header .e-prev:hover,
.e-calendar .e-header .e-next:hover {
  background: none;
}

.e-calendar .e-header .e-prev:active,
.e-calendar .e-header .e-next:active {
  background: #fff;
  color: #fff;
}

.e-calendar .e-header button.e-prev:active span,
.e-calendar .e-header button.e-next:active span {
  border: none;
  color: rgba(0, 0, 0, 0.75);
}

.e-calendar .e-header.e-decade .e-title {
  color: rgba(0, 0, 0, 0.87);
  cursor: default;
}

.e-calendar .e-header .e-next.e-disabled span,
.e-calendar .e-header .e-prev.e-disabled span {
  color: rgba(0, 0, 0, 0.87);
  font-weight: normal;
}

.e-calendar .e-header .e-next.e-disabled,
.e-calendar .e-header .e-prev.e-disabled {
  opacity: 0.35;
}

.e-calendar .e-content.e-decade tr:first-child .e-cell:first-child span.e-day,
.e-calendar .e-content.e-decade tr:last-child .e-cell:last-child span.e-day {
  color: rgba(0, 0, 0, 0.87);
}

.e-calendar .e-content.e-decade tr:first-child .e-cell:first-child.e-selected span.e-day,
.e-calendar .e-content.e-decade tr:last-child .e-cell:last-child.e-selected span.e-day {
  color: #fff;
}

.e-calendar .e-content.e-decade tr:first-child .e-cell.e-disabled:first-child span.e-day,
.e-calendar .e-content.e-decade tr:last-child .e-cell.e-disabled:last-child span.e-day {
  color: rgba(0, 0, 0, 0.87);
}

.e-calendar .e-content.e-year td:hover span.e-day,
.e-calendar .e-content.e-decade td:hover span.e-day {
  background-color: #eee;
}

.e-calendar .e-content.e-year td.e-selected:hover span.e-day,
.e-calendar .e-content.e-decade td.e-selected:hover span.e-day {
  background-color: #e3165b;
}

.e-calendar .e-content.e-year td > span.e-day,
.e-calendar .e-content.e-decade td > span.e-day {
  background: #fff;
}

.e-calendar .e-content .e-week-number span {
  color: rgba(0, 0, 0, 0.54);
}

.e-calendar .e-content td.e-focused-date span.e-day,
.e-calendar .e-content td.e-focused-date:hover span.e-day,
.e-calendar .e-content td.e-focused-date:focus span.e-day {
  background: #eee;
  border: none;
  border-radius: 50%;
}

.e-calendar .e-content td.e-focused-date:hover span.e-day {
  background-color: #eee;
  border: none;
  border-radius: 50%;
  color: rgba(0, 0, 0, 0.87);
}

.e-calendar .e-content td.e-today span.e-day,
.e-calendar .e-content td.e-focused-date.e-today span.e-day {
  background: none;
  border: 1px solid #e3165b;
  border-radius: 50%;
  color: #e3165b;
}

.e-calendar .e-content td.e-focused-date.e-today span.e-day {
  background: #eee;
  border: 1px solid #e3165b;
  color: #e3165b;
}

.e-calendar .e-content td.e-today:focus span.e-day,
.e-calendar .e-content td.e-focused-date.e-today:focus span.e-day {
  background-color: #eee;
  border: none;
  border-radius: 50%;
  color: #e3165b;
}

.e-calendar .e-content td.e-today:hover span.e-day,
.e-calendar .e-content td.e-focused-date.e-today:hover span.e-day,
.e-calendar .e-content td.e-focused-date.e-today:focus span.e-day {
  background-color: #eee;
  border: 1px solid #e3165b;
  color: #e3165b;
}

.e-calendar .e-content td.e-today.e-selected span.e-day {
  background-color: #e3165b;
  border: 1px solid #e3165b;
  box-shadow: inset 0 0 0 2px #fff;
  color: #fff;
}

.e-calendar .e-content td.e-today.e-selected:hover span.e-day,
.e-calendar .e-content td.e-selected:hover span.e-day,
.e-calendar .e-content td.e-selected.e-focused-date span.e-day {
  background-color: #b51148;
  color: #fff;
}

.e-calendar .e-content span {
  color: rgba(0, 0, 0, 0.87);
}

.e-calendar .e-content .e-disabled span.e-day:hover {
  background: none;
  border: 0;
  color: rgba(0, 0, 0, 0.87);
}

.e-calendar .e-content .e-other-month:hover span.e-day {
  color: rgba(0, 0, 0, 0.38);
}

.e-calendar .e-content .e-other-month span.e-day,
.e-calendar .e-content .e-other-month.e-today span.e-day {
  color: rgba(0, 0, 0, 0.38);
}

.e-calendar .e-content .e-other-month.e-today:hover span.e-day {
  background-color: #eee;
  color: rgba(0, 0, 0, 0.38);
}

.e-calendar .e-content thead {
  background: none;
  border-bottom: 0;
}

.e-calendar .e-content td:hover span.e-day,
.e-calendar .e-content td:focus span.e-day {
  background-color: #eee;
  border: none;
  border-radius: 50%;
  color: rgba(0, 0, 0, 0.87);
}

.e-calendar .e-content td:focus span.e-day {
  background-color: #eee;
  border: none;
  border-radius: 50%;
  color: rgba(0, 0, 0, 0.87);
}

.e-calendar .e-content td.e-disabled span.e-day,
.e-calendar .e-content td.e-disabled:hover span.e-day,
.e-calendar .e-content td.e-disabled:focus span.e-day {
  background: none;
  border: none;
  color: rgba(0, 0, 0, 0.87);
}

.e-calendar .e-content td.e-selected span.e-day {
  background-color: #e3165b;
  border: none;
  border-radius: 50%;
  color: #fff;
}

.e-calendar .e-content .e-footer {
  color: #e3165b;
}

.e-calendar.e-device .e-prev:hover,
.e-calendar.e-device .e-next:hover,
.e-calendar.e-device .e-prev:active,
.e-calendar.e-device .e-next:active,
.e-calendar.e-device .e-prev:focus,
.e-calendar.e-device .e-next:focus {
  background: none;
}

.e-calendar.e-device button.e-prev:active span,
.e-calendar.e-device button.e-next:active span {
  color: rgba(0, 0, 0, 0.54);
}

.e-zoomin {
  animation: animatezoom .3s;
}

@keyframes animatezoom {
  from {
    transform: scale(0);
  }
  to {
    transform: scale(1);
  }
}

@font-face {
  font-family: "e-icons";
  font-style: normal;
  font-weight: normal;
  src: url("data:application/x-font-ttf;charset=utf-8;base64,…") format("truetype");
}

.e-icons {
  font-family: "e-icons";
  font-style: normal;
  font-variant: normal;
  font-weight: normal;
  line-height: 1;
  speak: none;
  text-transform: none;
}

/*! component's default definitions and variables */
/*! component's theme wise override material-definitions and variables */
/*! card layout */
.e-bigger .e-card,
.e-bigger.e-card {
  line-height: 48px;
  min-height: 48px;
}

.e-bigger .e-card > .e-card-header-title,
.e-bigger.e-card > .e-card-header-title {
  line-height: normal;
  padding: 16px;
}

.e-bigger .e-card > .e-card-header-title + :not(.e-card-header-title),
.e-bigger.e-card > .e-card-header-title + :not(.e-card-header-title) {
  margin-top: 0;
  padding-top: 0;
}

.e-bigger .e-card > .e-card-title,
.e-bigger.e-card > .e-card-title {
  line-height: normal;
  padding: 24px 16px 16px;
}

.e-bigger .e-card > .e-card-title + :not(.e-card-title),
.e-bigger.e-card > .e-card-title + :not(.e-card-title) {
  margin-top: 0;
  padding-top: 0;
}

.e-bigger .e-card.e-card-horizontal .e-card-image,
.e-bigger .e-card.e-card-horizontal img,
.e-bigger .e-card .e-card-horizontal .e-card-image,
.e-bigger .e-card .e-card-horizontal img,
.e-bigger.e-card.e-card-horizontal .e-card-image,
.e-bigger.e-card.e-card-horizontal img,
.e-bigger.e-card .e-card-horizontal .e-card-image,
.e-bigger.e-card .e-card-horizontal img {
  margin: 2px;
}

.e-bigger .e-card .e-card-header,
.e-bigger.e-card .e-card-header {
  min-height: 30px;
  padding: 16px;
}

.e-bigger .e-card .e-card-header .e-card-content,
.e-bigger.e-card .e-card-header .e-card-content {
  padding-left: 0;
  padding-right: 0;
}

.e-bigger .e-card .e-card-header .e-card-header-caption,
.e-bigger.e-card .e-card-header .e-card-header-caption {
  padding: 0 0 0 16px;
}

.e-bigger .e-card .e-card-header .e-card-header-caption:first-child,
.e-bigger.e-card .e-card-header .e-card-header-caption:first-child {
  padding: 0;
}

.e-bigger .e-card .e-card-header .e-card-header-caption .e-card-header-title,
.e-bigger.e-card .e-card-header .e-card-header-caption .e-card-header-title {
  font-size: 15px;
  line-height: normal;
}

.e-bigger .e-card .e-card-header .e-card-header-caption .e-card-sub-title,
.e-bigger.e-card .e-card-header .e-card-header-caption .e-card-sub-title {
  font-size: 14px;
  line-height: normal;
  padding: 8px 0 0;
}

.e-bigger .e-card .e-card-header .e-card-header-image,
.e-bigger.e-card .e-card-header .e-card-header-image {
  background-size: cover;
  height: 40px;
  width: 40px;
}

.e-bigger .e-card .e-card-image,
.e-bigger.e-card .e-card-image {
  min-height: 150px;
}

.e-bigger .e-card .e-card-image .e-card-title,
.e-bigger.e-card .e-card-image .e-card-title {
  font-size: 24px;
  line-height: 40px;
  min-height: 40px;
  padding: 0 16px;
}

.e-bigger .e-card .e-card-actions,
.e-bigger.e-card .e-card-actions {
  padding: 16px 8px 8px 8px;
}

.e-bigger .e-card .e-card-actions.e-card-vertical,
.e-bigger.e-card .e-card-actions.e-card-vertical {
  padding: 16px 8px 8px 8px;
}

.e-bigger .e-card .e-card-actions.e-card-vertical .e-card-btn,
.e-bigger .e-card .e-card-actions.e-card-vertical a,
.e-bigger.e-card .e-card-actions.e-card-vertical .e-card-btn,
.e-bigger.e-card .e-card-actions.e-card-vertical a {
  margin: 0 0 8px 0;
}

.e-bigger .e-card .e-card-actions.e-card-vertical .e-card-btn:last-child,
.e-bigger .e-card .e-card-actions.e-card-vertical a:last-child,
.e-bigger.e-card .e-card-actions.e-card-vertical .e-card-btn:last-child,
.e-bigger.e-card .e-card-actions.e-card-vertical a:last-child {
  margin-bottom: 0;
}

.e-bigger .e-card .e-card-actions .e-card-btn span,
.e-bigger .e-card .e-card-actions .e-card-btn span.e-icons,
.e-bigger.e-card .e-card-actions .e-card-btn span,
.e-bigger.e-card .e-card-actions .e-card-btn span.e-icons {
  height: 24px;
  width: 24px;
}

.e-bigger .e-card .e-card-actions .e-card-btn,
.e-bigger .e-card .e-card-actions a,
.e-bigger.e-card .e-card-actions .e-card-btn,
.e-bigger.e-card .e-card-actions a {
  line-height: 36px;
  margin: 0 0 0 8px;
  min-height: 36px;
  padding: 0 6px;
}

.e-bigger .e-card .e-card-actions .e-card-btn:first-child,
.e-bigger .e-card .e-card-actions a:first-child,
.e-bigger.e-card .e-card-actions .e-card-btn:first-child,
.e-bigger.e-card .e-card-actions a:first-child {
  margin-left: 0;
}

.e-bigger .e-card .e-card-content,
.e-bigger.e-card .e-card-content {
  padding: 16px;
}

.e-bigger .e-card .e-card-content + :not(.e-card-content),
.e-bigger .e-card .e-card-content + .e-card-actions.e-card-vertical,
.e-bigger.e-card .e-card-content + :not(.e-card-content),
.e-bigger.e-card .e-card-content + .e-card-actions.e-card-vertical {
  margin-top: 0;
  padding-top: 0;
}

.e-card {
  border-radius: 2px;
  box-sizing: border-box;
  display: -ms-flexbox;
  display: flex;
  -ms-flex-direction: column;
      flex-direction: column;
  font-family: "Roboto", "Segoe UI", "GeezaPro", "DejaVu Serif", "sans-serif", "-apple-system", "BlinkMacSystemFont";
  font-size: 15px;
  -ms-flex-pack: center;
      justify-content: center;
  line-height: 36px;
  min-height: 36px;
  overflow: hidden;
  position: relative;
  text-overflow: ellipsis;
  vertical-align: middle;
  width: 100%;
}

.e-card > * {
  -ms-flex-pack: center;
      justify-content: center;
}

.e-card > .e-card-header-title {
  box-sizing: border-box;
  font-size: 15px;
  line-height: normal;
  padding: 12px;
}

.e-card > .e-card-header-title + :not(.e-card-header-title) {
  margin-top: 0;
  padding-top: 0;
}

.e-card > .e-card-title {
  font-size: 18px;
  line-height: normal;
  padding: 18px 12px 12px;
}

.e-card > .e-card-title + :not(.e-card-title) {
  margin-top: 0;
  padding-top: 0;
}

.e-card > .e-card-header-title,
.e-card > .e-card-title {
  overflow: hidden;
  text-overflow: ellipsis;
}

.e-card .e-card-header-caption {
  line-height: normal;
}

.e-card .e-card-header-caption .e-card-header-title {
  font-size: 15px;
}

.e-card .e-card-header-caption .e-card-sub-title {
  font-size: 14px;
}

.e-card .e-card-stacked {
  display: -ms-flexbox;
  display: flex;
  -ms-flex-direction: column;
      flex-direction: column;
  -ms-flex-pack: center;
      justify-content: center;
  overflow: hidden;
}

.e-card.e-card-horizontal,
.e-card .e-card-horizontal {
  display: -ms-flexbox;
  display: flex;
  -ms-flex-direction: row;
      flex-direction: row;
  -ms-flex-pack: center;
      justify-content: center;
}

.e-card.e-card-horizontal .e-card-image,
.e-card.e-card-horizontal img,
.e-card .e-card-horizontal .e-card-image,
.e-card .e-card-horizontal img {
  margin: 2px;
}

.e-card .e-card-horizontal {
  line-height: normal;
  padding: 2px;
}

.e-card.e-card-horizontal > * {
  -ms-flex: 1;
      flex: 1;
}

.e-card.e-card-horizontal .e-card-stacked {
  display: -ms-flexbox;
  display: flex;
  -ms-flex: 1;
      flex: 1;
  -ms-flex-direction: column;
      flex-direction: column;
  overflow: hidden;
}

.e-card.e-card-horizontal .e-card-stacked > :first-child {
  -ms-flex-positive: 1;
      flex-grow: 1;
}

.e-card .e-card-separator {
  display: block;
}

.e-card .e-card-corner {
  border-radius: 50%;
}

.e-card .e-card-header {
  box-sizing: border-box;
  display: -ms-flexbox;
  display: flex;
  -ms-flex-direction: row;
      flex-direction: row;
  -ms-flex-pack: center;
      justify-content: center;
  line-height: normal;
  min-height: 22.5px;
  padding: 12px;
  width: inherit;
}

.e-card .e-card-header .e-card-content {
  padding-left: 0;
  padding-right: 0;
}

.e-card .e-card-header .e-card-actions {
  -ms-flex-pack: start;
      justify-content: flex-start;
}

.e-card .e-card-header .e-card-header-image {
  -ms-flex-item-align: center;
      align-self: center;
  display: -ms-flexbox;
  display: flex;
}

.e-card .e-card-header .e-card-header-caption {
  -ms-flex-item-align: center;
      align-self: center;
  display: -ms-flexbox;
  display: flex;
  -ms-flex: 1;
      flex: 1;
  -ms-flex-direction: column;
      flex-direction: column;
  overflow: hidden;
  padding: 0 0 0 12px;
}

.e-card .e-card-header .e-card-header-caption:first-child {
  padding: 0;
}

.e-card .e-card-header .e-card-header-caption .e-card-header-title,
.e-card .e-card-header .e-card-header-caption .e-card-sub-title {
  display: inline-block;
  overflow: hidden;
  text-overflow: ellipsis;
  white-space: nowrap;
}

.e-card .e-card-header .e-card-header-caption .e-card-header-title {
  font-size: 13px;
  font-weight: 400;
  line-height: normal;
}

.e-card .e-card-header .e-card-header-caption .e-card-sub-title {
  font-size: 12px;
  font-weight: 400;
  line-height: normal;
  padding: 6px 0 0;
}

.e-card .e-card-header .e-card-header-image {
  background-repeat: no-repeat;
  background-size: cover;
  height: 30px;
  width: 30px;
}

.e-card .e-card-header .e-card-corner {
  border-radius: 50%;
}

.e-card .e-card-image {
  background-size: cover;
  min-height: 112.5px;
  position: relative;
  width: 100%;
}

.e-card .e-card-image .e-card-title {
  bottom: 0;
  box-sizing: border-box;
  font-size: 18px;
  line-height: 30px;
  min-height: 30px;
  overflow: hidden;
  padding: 0 12px;
  position: absolute;
  text-overflow: ellipsis;
  width: inherit;
}

.e-card .e-card-image .e-card-title.e-card-top-left, .e-card .e-card-image .e-card-title.e-card-top-right {
  bottom: auto;
  top: 0;
}

.e-card .e-card-image .e-card-title.e-card-top-right {
  text-align: right;
}

.e-card .e-card-image .e-card-title.e-card-bottom-right {
  text-align: right;
}

.e-card .e-card-actions {
  box-sizing: border-box;
  display: inline-block;
  -ms-flex-pack: start;
      justify-content: flex-start;
  padding: 12px 6px 6px 6px;
}

.e-card .e-card-actions.e-card-vertical {
  display: -ms-flexbox;
  display: flex;
  -ms-flex-direction: column;
      flex-direction: column;
  padding: 12px 6px 6px 6px;
}

.e-card .e-card-actions.e-card-vertical .e-card-btn,
.e-card .e-card-actions.e-card-vertical a {
  -ms-flex-item-align: initial;
      -ms-grid-row-align: initial;
      align-self: initial;
  box-sizing: border-box;
  display: inline-block;
  -ms-flex-pack: center;
      justify-content: center;
  margin: 0 0 6px 0;
  text-align: center;
  width: 100%;
}

.e-card .e-card-actions.e-card-vertical .e-card-btn:last-child,
.e-card .e-card-actions.e-card-vertical a:last-child {
  margin-bottom: 0;
}

.e-card .e-card-actions button,
.e-card .e-card-actions a {
  -ms-flex-align: center;
      align-items: center;
  -ms-flex-item-align: center;
      align-self: center;
  cursor: pointer;
  display: -ms-inline-flexbox;
  display: inline-flex;
  overflow: hidden;
  vertical-align: middle;
  white-space: nowrap;
}

.e-card .e-card-actions .e-card-btn span,
.e-card .e-card-actions .e-card-btn span.e-icons {
  display: -ms-flexbox;
  display: flex;
  font-size: 14px;
  height: 24px;
  width: 24px;
}

.e-card .e-card-actions .e-card-btn span::before,
.e-card .e-card-actions .e-card-btn span.e-icons::before {
  -ms-flex-item-align: center;
      align-self: center;
  display: -ms-flexbox;
  display: flex;
  -ms-flex-pack: center;
      justify-content: center;
  width: inherit;
}

.e-card .e-card-actions .e-card-btn > * {
  overflow: hidden;
  text-overflow: ellipsis;
  width: inherit;
}

.e-card .e-card-actions .e-card-btn,
.e-card .e-card-actions a {
  border-radius: 2px;
  font-family: "Roboto", "Segoe UI", "GeezaPro", "DejaVu Serif", "sans-serif", "-apple-system", "BlinkMacSystemFont";
  font-size: 14px;
  line-height: 27px;
  margin: 0 0 0 6px;
  min-height: 27px;
  padding: 0 6px;
  text-decoration: none;
  text-transform: uppercase;
}

.e-card .e-card-actions .e-card-btn:first-child,
.e-card .e-card-actions a:first-child {
  margin-left: 0;
}

.e-card .e-card-content {
  font-size: 14px;
  line-height: normal;
  padding: 12px;
}

.e-card .e-card-content + :not(.e-card-content),
.e-card .e-card-content + .e-card-actions.e-card-vertical {
  margin-top: 0;
  padding-top: 0;
}

.e-card .e-card-content,
.e-card .e-card-content p {
  line-height: normal;
  overflow: hidden;
  text-overflow: ellipsis;
}

/*! card theme */
.e-card {
  -webkit-tap-highlight-color: rgba(0, 0, 0, 0);
  background-color: #fff;
  border: 1px none #000;
  box-shadow: 0 2px 3px 0 rgba(0, 0, 0, 0.16);
  color: rgba(0, 0, 0, 0.87);
  outline: none;
}

.e-card:hover {
  background-color: #fff;
  border-color: #000;
  box-shadow: 0 4px 8px 0 rgba(0, 0, 0, 0.22);
}

.e-card:focus {
  background-color: #fff;
  border-color: #000;
}

.e-card:active {
  background-color: #fff;
  border-color: #000;
}

.e-card .e-card-separator {
  border-bottom: 1px solid rgba(0, 0, 0, 0.12);
}

.e-card .e-card-header-caption .e-card-header-title {
  color: rgba(0, 0, 0, 0.87);
}

.e-card .e-card-header-caption .e-card-sub-title {
  color: rgba(0, 0, 0, 0.54);
}

.e-card .e-card-image .e-card-title {
  background-color: rgba(0, 0, 0, 0.35);
  color: #fff;
}

.e-card .e-card-actions .e-card-btn span,
.e-card .e-card-actions .e-card-btn span.e-icons {
  color: rgba(0, 0, 0, 0.54);
}

.e-card .e-card-actions .e-card-btn,
.e-card .e-card-actions a {
  background-color: #fff;
  border: 0;
  color: #e3165b;
  outline: 0;
}

.e-card .e-card-actions .e-card-btn:hover,
.e-card .e-card-actions a:hover {
  background-color: rgba(0, 0, 0, 0.12);
  border: 0;
  color: #e3165b;
}

.e-card .e-card-actions .e-card-btn:focus,
.e-card .e-card-actions a:focus {
  background-color: rgba(0, 0, 0, 0.12);
  border: 0;
  color: #e3165b;
}

.e-card .e-card-actions .e-card-btn:active,
.e-card .e-card-actions a:active {
  background-color: rgba(0, 0, 0, 0.12);
  border: 0;
  color: #e3165b;
}

.e-card .e-card-content {
  color: rgba(0, 0, 0, 0.54);
}

.e-checkbox-wrapper .e-check::before,
.e-css.e-checkbox-wrapper .e-check::before {
  content: '\e933';
}

.e-checkbox-wrapper .e-stop::before,
.e-css.e-checkbox-wrapper .e-stop::before {
  content: '\e934';
}

/*! checkbox layout */
.e-checkbox-wrapper,
.e-css.e-checkbox-wrapper {
  cursor: pointer;
  display: inline-block;
  line-height: 1;
  outline: none;
  -webkit-user-select: none;
     -moz-user-select: none;
      -ms-user-select: none;
          user-select: none;
}

.e-checkbox-wrapper label,
.e-css.e-checkbox-wrapper label {
  cursor: pointer;
  display: inline-block;
  line-height: 0;
  margin: 0;
  position: relative;
  white-space: nowrap;
}

.e-checkbox-wrapper:focus .e-frame,
.e-css.e-checkbox-wrapper:focus .e-frame {
  box-shadow: none;
}

.e-checkbox-wrapper .e-ripple-container,
.e-css.e-checkbox-wrapper .e-ripple-container {
  border-radius: 50%;
  bottom: -9px;
  height: 36px;
  left: -9px;
  pointer-events: none;
  position: absolute;
  right: -9px;
  top: -9px;
  width: 36px;
  z-index: 1;
}

.e-checkbox-wrapper .e-label,
.e-css.e-checkbox-wrapper .e-label {
  cursor: pointer;
  display: inline-block;
  font-family: "Roboto", "Segoe UI", "GeezaPro", "DejaVu Serif", "sans-serif", "-apple-system", "BlinkMacSystemFont";
  font-size: 13px;
  font-weight: normal;
  line-height: 18px;
  -webkit-user-select: none;
     -moz-user-select: none;
      -ms-user-select: none;
          user-select: none;
  vertical-align: middle;
  white-space: normal;
}

.e-checkbox-wrapper .e-checkbox,
.e-css.e-checkbox-wrapper .e-checkbox {
  height: 1px;
  opacity: 0;
  position: absolute;
  width: 1px;
}

.e-checkbox-wrapper .e-checkbox + .e-label,
.e-css.e-checkbox-wrapper .e-checkbox + .e-label {
  margin-right: 10px;
}

.e-checkbox-wrapper .e-frame,
.e-css.e-checkbox-wrapper .e-frame {
  border: 2px solid;
  border-radius: 2px;
  box-sizing: border-box;
  cursor: pointer;
  display: inline-block;
  font-family: 'e-icons';
  height: 18px;
  line-height: 10px;
  padding: 2px 0;
  text-align: center;
  vertical-align: middle;
  width: 18px;
}

.e-checkbox-wrapper .e-frame + .e-label,
.e-css.e-checkbox-wrapper .e-frame + .e-label {
  margin-left: 10px;
}

.e-checkbox-wrapper .e-frame + .e-ripple-container,
.e-css.e-checkbox-wrapper .e-frame + .e-ripple-container {
  left: auto;
}

.e-checkbox-wrapper .e-check,
.e-css.e-checkbox-wrapper .e-check {
  font-size: 12px;
}

.e-checkbox-wrapper .e-stop,
.e-css.e-checkbox-wrapper .e-stop {
  font-size: 10px;
  line-height: 10px;
}

.e-checkbox-wrapper.e-checkbox-disabled,
.e-css.e-checkbox-wrapper.e-checkbox-disabled {
  cursor: default;
  pointer-events: none;
}

.e-checkbox-wrapper.e-checkbox-disabled .e-frame,
.e-css.e-checkbox-wrapper.e-checkbox-disabled .e-frame {
  cursor: default;
}

.e-checkbox-wrapper.e-checkbox-disabled .e-label,
.e-css.e-checkbox-wrapper.e-checkbox-disabled .e-label {
  cursor: default;
}

.e-checkbox-wrapper.e-rtl .e-ripple-container,
.e-css.e-checkbox-wrapper.e-rtl .e-ripple-container {
  right: -9px;
}

.e-checkbox-wrapper.e-rtl .e-frame,
.e-css.e-checkbox-wrapper.e-rtl .e-frame {
  margin: 0;
}

.e-checkbox-wrapper.e-rtl .e-frame + .e-ripple-container,
.e-css.e-checkbox-wrapper.e-rtl .e-frame + .e-ripple-container {
  left: -9px;
  right: auto;
}

.e-checkbox-wrapper.e-rtl .e-label,
.e-css.e-checkbox-wrapper.e-rtl .e-label {
  margin-left: 0;
  margin-right: 10px;
}

.e-checkbox-wrapper.e-rtl .e-label + .e-frame,
.e-css.e-checkbox-wrapper.e-rtl .e-label + .e-frame {
  margin: 0;
}

.e-checkbox-wrapper.e-rtl .e-checkbox + .e-label,
.e-css.e-checkbox-wrapper.e-rtl .e-checkbox + .e-label {
  margin-left: 10px;
  margin-right: 0;
}

.e-checkbox-wrapper.e-small .e-frame,
.e-css.e-checkbox-wrapper.e-small .e-frame {
  height: 14px;
  line-height: 6px;
  width: 14px;
}

.e-checkbox-wrapper.e-small .e-check,
.e-css.e-checkbox-wrapper.e-small .e-check {
  font-size: 10px;
}

.e-checkbox-wrapper.e-small .e-stop,
.e-css.e-checkbox-wrapper.e-small .e-stop {
  font-size: 8px;
  line-height: 6px;
}

.e-checkbox-wrapper.e-small .e-label,
.e-css.e-checkbox-wrapper.e-small .e-label {
  font-size: 13px;
  line-height: 14px;
}

.e-checkbox-wrapper.e-small .e-ripple-container,
.e-css.e-checkbox-wrapper.e-small .e-ripple-container {
  bottom: -9px;
  height: 32px;
  left: -9px;
  right: -9px;
  top: -9px;
  width: 32px;
}

.e-bigger .e-checkbox-wrapper .e-frame,
.e-bigger.e-checkbox-wrapper .e-frame,
.e-bigger .e-css.e-checkbox-wrapper .e-frame,
.e-bigger.e-css.e-checkbox-wrapper .e-frame {
  height: 22px;
  line-height: 14px;
  width: 22px;
}

.e-bigger .e-checkbox-wrapper .e-frame + .e-label,
.e-bigger.e-checkbox-wrapper .e-frame + .e-label,
.e-bigger .e-css.e-checkbox-wrapper .e-frame + .e-label,
.e-bigger.e-css.e-checkbox-wrapper .e-frame + .e-label {
  font-size: 14px;
  line-height: 22px;
  margin-left: 12px;
}

.e-bigger .e-checkbox-wrapper .e-check,
.e-bigger.e-checkbox-wrapper .e-check,
.e-bigger .e-css.e-checkbox-wrapper .e-check,
.e-bigger.e-css.e-checkbox-wrapper .e-check {
  font-size: 16px;
}

.e-bigger .e-checkbox-wrapper .e-stop,
.e-bigger.e-checkbox-wrapper .e-stop,
.e-bigger .e-css.e-checkbox-wrapper .e-stop,
.e-bigger.e-css.e-checkbox-wrapper .e-stop {
  font-size: 12px;
  line-height: 14px;
}

.e-bigger .e-checkbox-wrapper .e-label,
.e-bigger.e-checkbox-wrapper .e-label,
.e-bigger .e-css.e-checkbox-wrapper .e-label,
.e-bigger.e-css.e-checkbox-wrapper .e-label {
  font-size: 14px;
}

.e-bigger .e-checkbox-wrapper .e-ripple-container,
.e-bigger.e-checkbox-wrapper .e-ripple-container,
.e-bigger .e-css.e-checkbox-wrapper .e-ripple-container,
.e-bigger.e-css.e-checkbox-wrapper .e-ripple-container {
  bottom: -9px;
  height: 40px;
  left: -9px;
  right: -9px;
  top: -9px;
  width: 40px;
}

.e-bigger .e-checkbox-wrapper.e-rtl .e-frame,
.e-bigger.e-checkbox-wrapper.e-rtl .e-frame,
.e-bigger .e-css.e-checkbox-wrapper.e-rtl .e-frame,
.e-bigger.e-css.e-checkbox-wrapper.e-rtl .e-frame {
  margin: 0;
}

.e-bigger .e-checkbox-wrapper.e-rtl .e-frame + .e-label,
.e-bigger.e-checkbox-wrapper.e-rtl .e-frame + .e-label,
.e-bigger .e-css.e-checkbox-wrapper.e-rtl .e-frame + .e-label,
.e-bigger.e-css.e-checkbox-wrapper.e-rtl .e-frame + .e-label {
  margin-left: 0;
  margin-right: 12px;
}

.e-bigger .e-checkbox-wrapper.e-rtl .e-frame + .e-ripple-container,
.e-bigger.e-checkbox-wrapper.e-rtl .e-frame + .e-ripple-container,
.e-bigger .e-css.e-checkbox-wrapper.e-rtl .e-frame + .e-ripple-container,
.e-bigger.e-css.e-checkbox-wrapper.e-rtl .e-frame + .e-ripple-container {
  right: auto;
}

.e-bigger .e-checkbox-wrapper.e-small .e-frame,
.e-bigger.e-checkbox-wrapper.e-small .e-frame,
.e-bigger .e-css.e-checkbox-wrapper.e-small .e-frame,
.e-bigger.e-css.e-checkbox-wrapper.e-small .e-frame {
  height: 20px;
  line-height: 12px;
  width: 20px;
}

.e-bigger .e-checkbox-wrapper.e-small .e-check,
.e-bigger.e-checkbox-wrapper.e-small .e-check,
.e-bigger .e-css.e-checkbox-wrapper.e-small .e-check,
.e-bigger.e-css.e-checkbox-wrapper.e-small .e-check {
  font-size: 12px;
}

.e-bigger .e-checkbox-wrapper.e-small .e-stop,
.e-bigger.e-checkbox-wrapper.e-small .e-stop,
.e-bigger .e-css.e-checkbox-wrapper.e-small .e-stop,
.e-bigger.e-css.e-checkbox-wrapper.e-small .e-stop {
  font-size: 10px;
  line-height: 12px;
}

.e-bigger .e-checkbox-wrapper.e-small .e-label,
.e-bigger.e-checkbox-wrapper.e-small .e-label,
.e-bigger .e-css.e-checkbox-wrapper.e-small .e-label,
.e-bigger.e-css.e-checkbox-wrapper.e-small .e-label {
  font-size: 14px;
  line-height: 20px;
}

.e-bigger .e-checkbox-wrapper.e-small .e-ripple-container,
.e-bigger.e-checkbox-wrapper.e-small .e-ripple-container,
.e-bigger .e-css.e-checkbox-wrapper.e-small .e-ripple-container,
.e-bigger.e-css.e-checkbox-wrapper.e-small .e-ripple-container {
  bottom: -9px;
  height: 38px;
  left: -9px;
  right: -9px;
  top: -9px;
  width: 38px;
}

/*! checkbox theme */
.e-checkbox-wrapper,
.e-css.e-checkbox-wrapper {
  -webkit-tap-highlight-color: transparent;
}

.e-checkbox-wrapper .e-frame,
.e-css.e-checkbox-wrapper .e-frame {
  background-color: #fff;
  border-color: #757575;
}

.e-checkbox-wrapper .e-frame.e-check,
.e-css.e-checkbox-wrapper .e-frame.e-check {
  background-color: #e3165b;
  border-color: transparent;
  color: #fff;
}

.e-checkbox-wrapper .e-frame.e-stop,
.e-css.e-checkbox-wrapper .e-frame.e-stop {
  background-color: #fff;
  border-color: #757575;
  color: #757575;
}

.e-checkbox-wrapper .e-ripple-element,
.e-css.e-checkbox-wrapper .e-ripple-element {
  background: rgba(227, 22, 91, 0.26);
}

.e-checkbox-wrapper .e-ripple-check .e-ripple-element,
.e-css.e-checkbox-wrapper .e-ripple-check .e-ripple-element {
  background: rgba(0, 0, 0, 0.26);
}

.e-checkbox-wrapper:active .e-ripple-element,
.e-css.e-checkbox-wrapper:active .e-ripple-element {
  background: rgba(0, 0, 0, 0.26);
}

.e-checkbox-wrapper:active .e-ripple-check .e-ripple-element,
.e-css.e-checkbox-wrapper:active .e-ripple-check .e-ripple-element {
  background: rgba(227, 22, 91, 0.26);
}

.e-checkbox-wrapper .e-label,
.e-css.e-checkbox-wrapper .e-label {
  color: rgba(0, 0, 0, 0.87);
}

.e-checkbox-wrapper .e-checkbox:focus + .e-frame,
.e-css.e-checkbox-wrapper .e-checkbox:focus + .e-frame {
  background-color: #fff;
  border-color: #757575;
  box-shadow: none;
}

.e-checkbox-wrapper .e-checkbox:focus + .e-frame.e-check,
.e-css.e-checkbox-wrapper .e-checkbox:focus + .e-frame.e-check {
  background-color: #e3165b;
  border-color: transparent;
  box-shadow: none;
  color: #fff;
}

.e-checkbox-wrapper .e-checkbox:focus + .e-frame.e-stop,
.e-css.e-checkbox-wrapper .e-checkbox:focus + .e-frame.e-stop {
  box-shadow: none;
  color: #757575;
}

.e-checkbox-wrapper:hover .e-frame,
.e-css.e-checkbox-wrapper:hover .e-frame {
  background-color: #fff;
  border-color: #757575;
}

.e-checkbox-wrapper:hover .e-frame.e-check,
.e-css.e-checkbox-wrapper:hover .e-frame.e-check {
  background-color: #e3165b;
  border-color: transparent;
  color: #fff;
}

.e-checkbox-wrapper:hover .e-frame.e-stop,
.e-css.e-checkbox-wrapper:hover .e-frame.e-stop {
  color: #757575;
}

.e-checkbox-wrapper:hover .e-label,
.e-css.e-checkbox-wrapper:hover .e-label {
  color: rgba(0, 0, 0, 0.87);
}

.e-checkbox-wrapper.e-checkbox-disabled .e-frame,
.e-css.e-checkbox-wrapper.e-checkbox-disabled .e-frame {
  background-color: #fff;
  border-color: #bdbdbd;
  color: #bdbdbd;
}

.e-checkbox-wrapper.e-checkbox-disabled .e-frame.e-check,
.e-css.e-checkbox-wrapper.e-checkbox-disabled .e-frame.e-check {
  background-color: #bdbdbd;
  border-color: #bdbdbd;
  color: #fff;
}

.e-checkbox-wrapper.e-checkbox-disabled .e-frame.e-stop,
.e-css.e-checkbox-wrapper.e-checkbox-disabled .e-frame.e-stop {
  background-color: #fff;
  border-color: #bdbdbd;
  color: #bdbdbd;
}

.e-checkbox-wrapper.e-checkbox-disabled .e-label,
.e-css.e-checkbox-wrapper.e-checkbox-disabled .e-label {
  color: #bdbdbd;
}

.e-checkbox-wrapper.e-focus .e-ripple-container,
.e-css.e-checkbox-wrapper.e-focus .e-ripple-container {
  background-color: rgba(0, 0, 0, 0.12);
}

.e-checkbox-wrapper.e-focus .e-ripple-container.e-ripple-check,
.e-css.e-checkbox-wrapper.e-focus .e-ripple-container.e-ripple-check {
  background-color: rgba(227, 22, 91, 0.26);
}

.e-checkbox-wrapper.e-focus .e-frame,
.e-css.e-checkbox-wrapper.e-focus .e-frame {
  outline: #fff 0 solid;
  outline-offset: 0;
}

.e-checkbox-wrapper.e-focus .e-frame.e-check,
.e-css.e-checkbox-wrapper.e-focus .e-frame.e-check {
  outline: #fff 0 solid;
  outline-offset: 0;
}

@keyframes e-input-ripple {
  100% {
    opacity: 0;
    transform: scale(4);
  }
}

/*! component's default definitions and variables */
.e-container .e-value-switch-btn::before {
  content: '\e430';
}

.e-colorpicker-wrapper {
  display: inline-block;
  line-height: 0;
  outline: none;
  -webkit-user-select: none;
     -moz-user-select: none;
      -ms-user-select: none;
          user-select: none;
}

.e-colorpicker-wrapper .e-colorpicker {
  height: 1px;
  opacity: 0;
  position: absolute;
  width: 1px;
}

.e-colorpicker-wrapper .e-split-btn-wrapper .e-split-colorpicker.e-split-btn {
  font-family: initial;
  line-height: 14px;
  padding: 0 4px;
}

.e-colorpicker-wrapper .e-split-btn-wrapper .e-split-colorpicker.e-split-btn .e-selected-color {
  background: transparent url("data:image/svg+xml;base64,…");
  background-size: 8px;
  border-radius: 2px;
  height: 18px;
  margin-top: 0;
  position: relative;
  width: 18px;
}

.e-colorpicker-wrapper .e-split-btn-wrapper .e-split-colorpicker.e-split-btn .e-selected-color .e-split-preview {
  border-radius: 2px;
}

.e-colorpicker-wrapper .e-split-btn-wrapper.e-rtl .e-split-colorpicker.e-split-btn {
  padding: 0 4px;
}

.e-colorpicker-wrapper * {
  box-sizing: border-box;
}

.e-colorpicker-wrapper.e-disabled .e-palette .e-tile {
  cursor: default;
}

.e-colorpicker-wrapper.e-disabled .e-palette .e-tile:hover {
  border: 0;
  box-shadow: none;
}

.e-colorpicker-wrapper.e-disabled .e-palette .e-tile.e-selected {
  border: 0;
}

.e-colorpicker-wrapper.e-disabled .e-container .e-handler,
.e-colorpicker-wrapper.e-disabled .e-container .e-preview-container {
  cursor: default;
}

.e-colorpicker-popup {
  line-height: 0;
}

.e-colorpicker.e-modal {
  -webkit-overflow-scrolling: touch;
  background-color: rgba(0, 0, 0, 0.6);
  height: 100%;
  left: 0;
  opacity: .5;
  pointer-events: auto;
  position: fixed;
  top: 0;
  width: 100%;
}

body.e-colorpicker-overflow {
  overflow: visible;
}

.e-bigger .e-colorpicker-wrapper .e-split-btn-wrapper .e-split-colorpicker.e-split-btn,
.e-bigger.e-colorpicker-wrapper .e-split-btn-wrapper .e-split-colorpicker.e-split-btn {
  line-height: 18px;
  padding: 0 6px;
}

.e-bigger .e-colorpicker-wrapper .e-split-btn-wrapper .e-split-colorpicker.e-split-btn .e-selected-color,
.e-bigger.e-colorpicker-wrapper .e-split-btn-wrapper .e-split-colorpicker.e-split-btn .e-selected-color {
  height: 22px;
  width: 22px;
}

.e-bigger .e-colorpicker-wrapper .e-split-btn-wrapper.e-rtl .e-split-colorpicker.e-split-btn,
.e-bigger.e-colorpicker-wrapper .e-split-btn-wrapper.e-rtl .e-split-colorpicker.e-split-btn {
  padding: 0 6px;
}

.e-container {
  border: 0;
  border-radius: 0;
  box-shadow: 0 0 3px 1px rgba(0, 0, 0, 0.2);
  display: inline-block;
  line-height: 0;
  outline: none;
  -webkit-user-select: none;
     -moz-user-select: none;
      -ms-user-select: none;
          user-select: none;
}

.e-container.e-color-picker {
  width: 270px;
}

.e-container.e-color-picker .e-mode-switch-btn {
  background: transparent url("data:image/svg+xml;base64,…") no-repeat 100% 100%;
}

.e-container.e-color-palette {
  width: auto;
}

.e-container.e-color-palette .e-mode-switch-btn {
  background: transparent url("data:image/svg+xml;base64,…") no-repeat 100% 100%;
}

.e-container .e-custom-palette .e-palette {
  padding: 10px;
}

.e-container .e-custom-palette.e-palette-group {
  height: 270px;
  overflow-y: scroll;
}

.e-container .e-palette {
  border-bottom: 0;
  line-height: 0;
  outline: none;
  -webkit-user-select: none;
     -moz-user-select: none;
      -ms-user-select: none;
          user-select: none;
}

.e-container .e-palette .e-row {
  white-space: nowrap;
}

.e-container .e-palette .e-tile {
  border: 0.5px solid transparent;
  box-sizing: border-box;
  cursor: pointer;
  display: inline-block;
  height: 27px;
  text-align: center;
  vertical-align: middle;
  width: 27px;
}

.e-container .e-palette .e-tile.e-selected {
  outline: #000 0.5px solid;
  position: relative;
}

.e-container .e-palette .e-tile:hover {
  box-shadow: 2px 2px 7px 2px rgba(0, 0, 0, 0.3);
  position: relative;
}

.e-container .e-palette .e-tile.e-nocolor-item {
  background: transparent url("data:image/svg+xml;base64,…");
  background-size: 8px;
}

.e-container .e-hsv-container {
  border-bottom: 0;
  position: relative;
  -ms-touch-action: none;
      touch-action: none;
}

.e-container .e-hsv-container .e-hsv-color {
  background: linear-gradient(to bottom, rgba(0, 0, 0, 0) 0, #000 100%), linear-gradient(to right, #fff 0, rgba(255, 255, 255, 0) 100%);
  height: 170px;
}

.e-container .e-hsv-container .e-handler {
  border: 1px solid #fff;
  border-radius: 6px;
  box-shadow: 0 0 3px rgba(0, 0, 0, 0.7), inset 0 0 2px rgba(0, 0, 0, 0.7);
  cursor: pointer;
  display: inline-block;
  height: 8px;
  margin-left: -4px;
  margin-top: -4px;
  position: absolute;
  -ms-touch-action: none;
      touch-action: none;
  -webkit-user-select: none;
     -moz-user-select: none;
      -ms-user-select: none;
          user-select: none;
  width: 8px;
}

.e-container .e-slider-preview {
  display: inline-block;
  padding: 10px 16px;
  width: 100%;
}

.e-container .e-slider-preview .e-colorpicker-slider {
  display: inline-block;
  width: 82.34%;
}

.e-container .e-slider-preview .e-colorpicker-slider .e-slider-container {
  height: 18px;
}

.e-container .e-slider-preview .e-colorpicker-slider .e-slider-container .e-slider {
  height: 18px;
  top: calc(50% - 9px);
}

.e-container .e-slider-preview .e-colorpicker-slider .e-slider-container .e-slider-track {
  border-radius: 0;
  height: 6px;
  top: calc(50% - 3px);
}

.e-container .e-slider-preview .e-colorpicker-slider .e-slider-container .e-handle {
  border-radius: 6px;
  cursor: pointer;
  height: 14px;
  top: calc(50% - 7px);
  width: 14px;
}

.e-container .e-slider-preview .e-colorpicker-slider .e-slider-container .e-handle.e-handle-active {
  cursor: pointer;
}

.e-container .e-slider-preview .e-colorpicker-slider .e-slider-container .e-handle.e-large-thumb-size {
  transform: scale(1);
}

.e-container .e-slider-preview .e-colorpicker-slider .e-hue-slider .e-slider-track {
  background: linear-gradient(to right, #f00 0, #ff0 16%, #0f0 33%, #0ff 50%, #00f 67%, #f0f 84%, #ff0004 100%);
}

.e-container .e-slider-preview .e-colorpicker-slider .e-opacity-slider .e-slider-track {
  border: 0;
  z-index: 1;
}

.e-container .e-slider-preview .e-colorpicker-slider .e-opacity-slider .e-opacity-empty-track {
  background: transparent url("data:image/svg+xml;base64,…");
  background-size: contain;
  border: 0;
  height: 6px;
  position: absolute;
  top: calc(50% - 3px);
  width: 100%;
  z-index: 0;
}

.e-container .e-slider-preview .e-colorpicker-slider .e-slider.e-hue-slider .e-handle,
.e-container .e-slider-preview .e-colorpicker-slider .e-slider.e-hue-slider .e-handle-start,
.e-container .e-slider-preview .e-colorpicker-slider .e-slider.e-opacity-slider .e-handle,
.e-container .e-slider-preview .e-colorpicker-slider .e-slider.e-opacity-slider .e-handle-start {
  box-shadow: 0 1px 2px rgba(0, 0, 0, 0.3);
}

.e-container .e-slider-preview .e-preview-container {
  background: transparent url("data:image/svg+xml;base64,…");
  background-size: 10px;
  border: 1px solid #e0e0e0;
  cursor: pointer;
  display: inline-block;
  height: 32px;
  margin-left: 4.205%;
  position: relative;
  top: -2px;
  width: 13.45%;
}

.e-container .e-slider-preview .e-preview-container .e-preview {
  display: block;
  height: 16px;
  position: absolute;
  width: 100%;
}

.e-container .e-slider-preview .e-preview-container .e-preview.e-current {
  border-bottom: 1px solid #e0e0e0;
  top: 0;
}

.e-container .e-slider-preview .e-preview-container .e-preview.e-previous {
  height: 14px;
  top: 16px;
}

.e-container .e-selected-value {
  -ms-flex-align: center;
      align-items: center;
  display: -ms-inline-flexbox;
  display: inline-flex;
  padding: 0 16px 16px;
  -webkit-user-select: none;
     -moz-user-select: none;
      -ms-user-select: none;
          user-select: none;
  width: 100%;
}

.e-container .e-selected-value .e-input-container .e-float-input input {
  padding-left: 0;
  text-align: center;
}

.e-container .e-selected-value .e-value-switch-btn {
  font-family: 'e-icons';
  font-size: 16px;
  line-height: 16px;
  margin-top: 0;
  padding: 2px 3px;
}

.e-container .e-input-container {
  display: inline-block;
  width: 89.8%;
}

.e-container .e-input-container .e-float-input {
  display: inline-block;
  margin-right: 3.75%;
  vertical-align: baseline;
}

.e-container .e-input-container .e-float-input:first-child {
  width: 33%;
}

.e-container .e-input-container .e-float-input:first-child input {
  height: auto;
}

.e-container .e-input-container .e-float-input.e-numeric {
  height: auto;
  width: 12%;
}

.e-container .e-input-container .e-float-input.e-numeric input {
  height: auto;
}

.e-container .e-input-container .e-float-input .e-float-text {
  text-align: center;
}

.e-container .e-switch-ctrl-btn {
  display: inline-block;
  padding: 0 16px 16px;
  white-space: nowrap;
  width: 100%;
}

.e-container .e-switch-ctrl-btn .e-ctrl-btn {
  float: right;
  text-align: right;
  white-space: nowrap;
  width: 89.913%;
}

.e-container .e-switch-ctrl-btn .e-ctrl-btn .e-btn {
  max-width: 50%;
  overflow: hidden;
  text-overflow: ellipsis;
  white-space: nowrap;
}

.e-container .e-switch-ctrl-btn .e-ctrl-btn .e-btn.e-cancel {
  margin-left: 0;
}

.e-container .e-switch-ctrl-btn .e-mode-switch-btn {
  background-origin: border-box;
  background-position: center;
  background-size: cover;
  float: left;
  margin-top: 0;
  overflow: hidden;
  white-space: nowrap;
}

.e-container .e-switch-ctrl-btn .e-mode-switch-btn:focus {
  box-shadow: 0 0 2px 3px rgba(0, 0, 0, 0.2);
}

.e-container .e-value-switch-btn,
.e-container .e-mode-switch-btn {
  background-color: transparent;
  border-color: transparent;
  height: 24px;
  position: relative;
  width: 10.09%;
}

.e-container.e-color-picker .e-value-switch-btn:focus, .e-container.e-color-picker .e-value-switch-btn:hover, .e-container.e-color-picker .e-value-switch-btn:active {
  border-color: transparent;
  box-shadow: none;
  outline: none;
}

.e-container.e-color-picker .e-value-switch-btn:focus {
  outline: none;
}

.e-container.e-color-palette .e-palette + .e-selected-value,
.e-container.e-color-palette .e-palette-group + .e-selected-value {
  padding: 16px 16px;
}

.e-container.e-color-palette .e-palette + .e-switch-ctrl-btn,
.e-container.e-color-palette .e-palette-group + .e-switch-ctrl-btn {
  padding: 23px 16px 16px;
}

.e-hide-opacity .e-container .e-slider-preview .e-colorpicker-slider {
  vertical-align: super;
}

.e-hide-opacity .e-container .e-slider-preview .e-preview-container {
  top: 0;
}

.e-hide-opacity .e-container .e-float-input:first-child {
  width: 36%;
}

.e-hide-opacity .e-container .e-float-input.e-numeric {
  width: 16.3%;
}

.e-hide-hex-value .e-container .e-float-input.e-numeric {
  width: 21.25%;
}

.e-hide-hex-value.e-hide-opacity .e-container .e-float-input.e-numeric {
  width: 29.59%;
}

.e-hide-valueswitcher .e-container .e-input-container {
  width: 100%;
}

.e-hide-valueswitcher .e-container .e-float-input:first-child {
  width: 33%;
}

.e-hide-valueswitcher .e-container .e-float-input.e-numeric {
  width: 13%;
}

.e-hide-valueswitcher .e-container .e-float-input:last-child {
  margin-right: 0;
}

.e-hide-valueswitcher.e-hide-opacity .e-container .e-float-input:first-child {
  width: 36%;
}

.e-hide-valueswitcher.e-hide-opacity .e-container .e-float-input.e-numeric {
  width: 17.58%;
}

.e-hide-valueswitcher.e-hide-hex-value .e-container .e-float-input.e-numeric {
  width: 22.18%;
}

.e-hide-valueswitcher.e-hide-hex-value.e-hide-opacity .e-container .e-float-input.e-numeric {
  width: 30.82%;
}

.e-rtl .e-container .e-hsv-container .e-hsv-color {
  background: linear-gradient(to bottom, rgba(0, 0, 0, 0) 0, #000 100%), linear-gradient(to left, #fff 0, rgba(255, 255, 255, 0) 100%);
}

.e-rtl .e-container .e-slider-preview .e-hue-slider .e-slider-track {
  background: linear-gradient(to left, #f00 0, #ff0 16%, #0f0 33%, #0ff 50%, #00f 67%, #f0f 84%, #ff0004 100%);
}

.e-rtl .e-container .e-slider-preview .e-preview-container {
  margin-left: 0;
  margin-right: 4.205%;
}

.e-rtl .e-container .e-selected-value .e-float-input {
  margin-left: 3.75%;
  margin-right: 0;
}

.e-rtl .e-container .e-selected-value .e-float-input input {
  padding-right: 0;
}

.e-rtl .e-container .e-selected-value .e-value-switch-btn {
  transform: rotate(180deg);
}

.e-rtl .e-container .e-switch-ctrl-btn .e-mode-switch-btn {
  float: right;
}

.e-rtl .e-container .e-switch-ctrl-btn .e-ctrl-btn {
  float: left;
  text-align: left;
}

.e-rtl .e-container .e-switch-ctrl-btn .e-ctrl-btn .e-cancel {
  margin-left: 0;
  margin-right: 0;
}

.e-rtl.e-hide-valueswitcher .e-container .e-float-input:last-child {
  margin-left: 0;
}

.e-bigger .e-container.e-color-picker {
  width: 290px;
}

.e-bigger .e-container .e-palette .e-tile {
  height: 29px;
  width: 29px;
}

.e-bigger .e-container .e-hsv-container .e-hsv-color {
  height: 180px;
}

.e-bigger .e-container .e-custom-palette.e-palette-group {
  height: 290px;
}

.e-bigger .e-container .e-slider-preview {
  padding: 8px 16px;
}

.e-bigger .e-container .e-slider-preview .e-preview-container {
  margin-left: 4.657%;
  top: 0;
  vertical-align: super;
  width: 12.408%;
}

.e-bigger .e-container .e-slider-preview .e-colorpicker-slider {
  width: 82.944%;
}

.e-bigger .e-container .e-slider-preview .e-colorpicker-slider .e-slider-container {
  height: 20px;
}

.e-bigger .e-container .e-slider-preview .e-colorpicker-slider .e-slider-container .e-handle {
  border-radius: 8px;
  height: 16px;
  top: calc(50% - 8px);
  width: 16px;
}

.e-bigger .e-container .e-slider-preview .e-switch-ctrl-btn .e-ctrl-btn {
  width: 90.6%;
}

.e-bigger .e-container.e-color-palette .e-palette + .e-switch-ctrl-btn {
  padding: 25px 16px 16px;
}

.e-bigger .e-container .e-input-container {
  width: 90.7%;
}

.e-bigger .e-container .e-input-container .e-float-input {
  margin-right: 3.425%;
}

.e-bigger .e-container .e-input-container .e-float-input:first-child {
  width: 33.5%;
}

.e-bigger .e-container .e-input-container .e-float-input:first-child input {
  height: auto;
}

.e-bigger .e-container .e-input-container .e-float-input.e-numeric {
  height: auto;
  width: 12.34%;
}

.e-bigger .e-container .e-input-container .e-float-input.e-numeric input {
  height: auto;
}

.e-bigger .e-container .e-value-switch-btn,
.e-bigger .e-container .e-mode-switch-btn {
  font-size: 18px;
  line-height: 18px;
  padding: 2px 3px;
  width: 9.306%;
}

.e-bigger .e-container .e-mode-switch-btn {
  margin-top: 5px;
}

.e-bigger .e-hide-opacity .e-container .e-slider-preview, .e-bigger.e-hide-opacity .e-container .e-slider-preview {
  padding: 8px 16px;
}

.e-bigger .e-hide-opacity .e-container .e-slider-preview .e-preview-container, .e-bigger.e-hide-opacity .e-container .e-slider-preview .e-preview-container {
  vertical-align: initial;
}

.e-bigger .e-hide-opacity .e-container .e-float-input:first-child, .e-bigger.e-hide-opacity .e-container .e-float-input:first-child {
  width: 36%;
}

.e-bigger .e-hide-opacity .e-container .e-float-input.e-numeric, .e-bigger.e-hide-opacity .e-container .e-float-input.e-numeric {
  width: 16.76%;
}

.e-bigger.e-hide-hex-value .e-container .e-float-input.e-numeric,
.e-bigger .e-hide-hex-value .e-container .e-float-input.e-numeric {
  width: 21.58%;
}

.e-bigger.e-hide-hex-value.e-hide-opacity .e-container .e-float-input.e-numeric,
.e-bigger .e-hide-hex-value.e-hide-opacity .e-container .e-float-input.e-numeric {
  width: 29.9%;
}

.e-bigger.e-hide-valueswitcher .e-container .e-input-container,
.e-bigger .e-hide-valueswitcher .e-container .e-input-container {
  width: 100%;
}

.e-bigger.e-hide-valueswitcher .e-container .e-float-input:last-child,
.e-bigger .e-hide-valueswitcher .e-container .e-float-input:last-child {
  margin-right: 0;
}

.e-bigger.e-hide-valueswitcher .e-container .e-float-input.e-numeric,
.e-bigger .e-hide-valueswitcher .e-container .e-float-input.e-numeric {
  width: 13.2%;
}

.e-bigger.e-hide-valueswitcher.e-hide-opacity .e-container .e-float-input:first-child,
.e-bigger .e-hide-valueswitcher.e-hide-opacity .e-container .e-float-input:first-child {
  width: 36%;
}

.e-bigger.e-hide-valueswitcher.e-hide-opacity .e-container .e-float-input.e-numeric,
.e-bigger .e-hide-valueswitcher.e-hide-opacity .e-container .e-float-input.e-numeric {
  width: 17.9%;
}

.e-bigger.e-hide-valueswitcher.e-hide-hex-value .e-container .e-float-input.e-numeric,
.e-bigger.e-hide-valueswitcher .e-hide-hex-value .e-container .e-float-input.e-numeric,
.e-bigger .e-hide-valueswitcher.e-hide-hex-value .e-container .e-float-input.e-numeric,
.e-bigger .e-hide-valueswitcher .e-hide-hex-value .e-container .e-float-input.e-numeric {
  width: 22.42%;
}

.e-bigger.e-hide-valueswitcher.e-hide-hex-value.e-hide-opacity .e-container .e-float-input.e-numeric,
.e-bigger.e-hide-valueswitcher .e-hide-hex-value.e-hide-opacity .e-container .e-float-input.e-numeric,
.e-bigger .e-hide-valueswitcher.e-hide-hex-value.e-hide-opacity .e-container .e-float-input.e-numeric,
.e-bigger .e-hide-valueswitcher .e-hide-hex-value.e-hide-opacity .e-container .e-float-input.e-numeric {
  width: 31%;
}

.e-bigger .e-rtl .e-container .e-slider-preview .e-preview-container,
.e-bigger.e-rtl .e-container .e-slider-preview .e-preview-container {
  margin-left: 0;
  margin-right: 4.657%;
}

.e-bigger .e-rtl .e-container .e-selected-value .e-float-input,
.e-bigger.e-rtl .e-container .e-selected-value .e-float-input {
  margin-left: 3.425%;
  margin-right: 0;
}

.e-bigger .e-rtl.e-hide-valueswitcher .e-container .e-float-input:last-child,
.e-bigger.e-rtl.e-hide-valueswitcher .e-container .e-float-input:last-child {
  margin-left: 0;
}

.e-hide-switchable-value .e-container .e-input-container .e-float-input:first-child,
.e-bigger.e-hide-switchable-value .e-container .e-input-container .e-float-input:first-child,
.e-bigger .e-hide-switchable-value .e-container .e-input-container .e-float-input:first-child {
  width: 100%;
}

.e-popup.e-tooltip-wrap.e-color-picker-tooltip {
  border-bottom-left-radius: 50%;
  border-bottom-right-radius: 0%;
  border-top-left-radius: 50%;
  border-top-right-radius: 50%;
  box-shadow: 0 1px 2px rgba(0, 0, 0, 0.3);
  cursor: pointer;
  min-width: 26px;
  transform: translateY(18px) rotate(45deg) scale(0.01);
  transition: transform 0.4s cubic-bezier(0.25, 0.8, 0.25, 1);
}

.e-popup.e-tooltip-wrap.e-color-picker-tooltip .e-tip-content {
  background: transparent url("data:image/svg+xml;base64,…");
  background-size: 8px;
  border-radius: 50%;
  height: 24px;
  position: relative;
  transform: rotate(45deg);
  width: 24px;
}

.e-split-preview,
.e-tip-transparent {
  height: 100%;
  left: 0;
  position: absolute;
  top: 0;
  width: 100%;
}

.e-bigger .e-popup.e-tooltip-wrap.e-color-picker-tooltip,
.e-bigger.e-popup.e-tooltip-wrap.e-color-picker-tooltip {
  min-width: 32px;
}

.e-bigger .e-popup.e-tooltip-wrap.e-color-picker-tooltip .e-tip-content,
.e-bigger.e-popup.e-tooltip-wrap.e-color-picker-tooltip .e-tip-content {
  height: 30px;
  width: 30px;
}

.e-container {
  background-color: #fff;
}

.e-container .e-palette .e-tile:hover, .e-container .e-palette .e-tile.e-selected {
  border-color: #eee;
}

.e-container .e-handler.e-hide-handler,
.e-container .e-handle.e-hide-handler {
  background-color: transparent;
  border-color: transparent;
  box-shadow: none;
}

.e-container .e-control-wrapper.e-slider-container .e-slider.e-hue-slider .e-handle:not(.e-tab-handle),
.e-container .e-control-wrapper.e-slider-container .e-slider.e-opacity-slider .e-handle:not(.e-tab-handle) {
  background-color: #fff;
  border-color: #fff;
}

.e-container .e-control-wrapper.e-slider-container .e-slider.e-hue-slider .e-handle:not(.e-tab-handle).e-handle-start:not(.e-tab-handle),
.e-container .e-control-wrapper.e-slider-container .e-slider.e-opacity-slider .e-handle:not(.e-tab-handle).e-handle-start:not(.e-tab-handle) {
  background-color: #fff;
  border-color: #fff;
}

.e-container .e-control-wrapper.e-slider-container .e-slider.e-hue-slider .e-handle.e-tab-handle,
.e-container .e-control-wrapper.e-slider-container .e-slider.e-opacity-slider .e-handle.e-tab-handle {
  background-color: #fff;
  border-color: #fff;
  box-shadow: 0 1px 2px rgba(0, 0, 0, 0.64);
}

.e-colorpicker-wrapper.e-disabled .e-value-switch-btn,
.e-colorpicker-wrapper.e-disabled .e-mode-switch-btn {
  color: rgba(0, 0, 0, 0.26);
}

.e-colorpicker-wrapper.e-disabled .e-value-switch-btn:focus,
.e-colorpicker-wrapper.e-disabled .e-mode-switch-btn:focus {
  background-color: transparent;
  color: rgba(0, 0, 0, 0.26);
  outline: none;
  outline-offset: none;
}

…
.e-toolbar .e-toolbar-items .e-toolbar-item.e-separator {
  height: calc(100% - 15px);
  vertical-align: middle;
}

.e-toolbar .e-toolbar-items .e-toolbar-item.e-separator + .e-separator {
  display: none;
}

.e-toolbar .e-toolbar-items .e-toolbar-item.e-separator:last-of-type, .e-toolbar .e-toolbar-items .e-toolbar-item.e-separator:first-of-type {
  display: none;
}

.e-toolbar .e-tbar-btn > :first-child {
  display: inline-block;
}

.e-toolbar .e-tbar-btn {
  border: none;
  cursor: pointer;
  font-family: "Roboto", "Segoe UI", "GeezaPro", "DejaVu Serif";
  font-size: 14px;
  font-weight: 400;
  overflow: hidden;
  padding: 0 1.5px;
  text-align: center;
  text-decoration: none;
  text-transform: none;
}

.e-toolbar .e-tbar-btn .e-icons.e-btn-icon {
  font-size: 14px;
  vertical-align: middle;
}

.e-toolbar .e-tbar-btn div {
  vertical-align: middle;
}

.e-toolbar .e-tbar-btn .e-tbar-btn-text {
  display: inline-block;
  font-family: "Roboto", "Segoe UI", "GeezaPro", "DejaVu Serif";
  font-size: 14px;
  line-height: inherit;
  vertical-align: middle;
  width: auto;
}

.e-toolbar.e-vertical {
  display: -ms-flexbox;
  display: flex;
  -ms-flex-direction: column;
      flex-direction: column;
}

.e-toolbar.e-vertical.e-rtl.e-tbar-pos .e-toolbar-left {
  bottom: 0;
  top: auto;
}

.e-toolbar.e-vertical.e-rtl.e-tbar-pos .e-toolbar-right {
  bottom: auto;
  top: 0;
}

.e-toolbar.e-vertical .e-toolbar-items.e-tbar-pos .e-toolbar-left,
.e-toolbar.e-vertical .e-toolbar-items.e-tbar-pos .e-toolbar-center,
.e-toolbar.e-vertical .e-toolbar-items.e-tbar-pos .e-toolbar-right {
  height: auto;
}

.e-toolbar.e-vertical .e-toolbar-items.e-tbar-pos .e-toolbar-left {
  left: auto;
  right: auto;
  top: 0;
}

.e-toolbar.e-vertical .e-toolbar-items.e-tbar-pos .e-toolbar-right {
  bottom: 0;
  left: auto;
  right: auto;
}

.e-toolbar.e-vertical .e-toolbar-items:not(.e-tbar-pos) .e-toolbar-item:first-child {
  margin-left: 0;
}

.e-toolbar.e-vertical .e-toolbar-items:not(.e-tbar-pos) .e-toolbar-item:last-child {
  margin-right: 0;
}

.e-toolbar.e-vertical .e-toolbar-items .e-toolbar-item {
  display: -ms-flexbox;
  display: flex;
  height: auto;
}

.e-toolbar.e-vertical .e-toolbar-items .e-toolbar-item:not(.e-separator) {
  min-width: 33px;
}

.e-toolbar.e-vertical .e-toolbar-items .e-toolbar-item.e-separator {
  height: auto;
  margin: 3px 7.5px;
  min-height: auto;
}

.e-toolbar.e-vertical .e-toolbar-items .e-toolbar-item .e-tbar-btn.e-btn {
  margin: 4px auto;
}

.e-toolbar.e-vertical .e-hor-nav {
  bottom: 0;
  height: auto;
  left: 0;
  min-height: 40px;
  min-width: 50px;
  right: auto;
  top: auto;
  width: auto;
}

/*! toolbar theme */
.e-toolbar {
  -webkit-tap-highlight-color: rgba(0, 0, 0, 0);
  background: #fafafa;
  border: 1px none rgba(0, 0, 0, 0.12);
  box-shadow: none;
}

.e-toolbar.e-vertical .e-hor-nav {
  border: solid rgba(0, 0, 0, 0.12);
  border-width: 1px 0 0 0;
}

.e-toolbar.e-vertical.e-rtl .e-hor-nav {
  border: solid rgba(0, 0, 0, 0.12);
  border-width: 0 0 1px 0;
}

.e-toolbar.e-vertical .e-toolbar-items .e-toolbar-item.e-separator {
  border-width: 0 0 0.5px 0;
}

.e-toolbar.e-extended-toolbar .e-toolbar-extended .e-toolbar-item.e-overlay {
  background: #fafafa;
}

.e-toolbar.e-extended-toolbar .e-toolbar-extended .e-toolbar-item.e-separator {
  border: solid rgba(0, 0, 0, 0.12);
  border-width: 0 0.5px 0 0;
}

.e-toolbar.e-extended-toolbar .e-toolbar-extended .e-toolbar-item .e-tbar-btn .e-icons {
  color: rgba(0, 0, 0, 0.54);
}

.e-toolbar.e-extended-toolbar .e-toolbar-extended .e-toolbar-item .e-tbar-btn {
  background: #fafafa;
  box-shadow: none;
  color: rgba(0, 0, 0, 0.87);
}

.e-toolbar.e-extended-toolbar .e-toolbar-extended .e-toolbar-item .e-tbar-btn:focus {
  background: rgba(0, 0, 0, 0.12);
  border-color: rgba(0, 0, 0, 0.12);
  border-radius: "";
  color: rgba(0, 0, 0, 0.87);
}

.e-toolbar.e-extended-toolbar .e-toolbar-extended .e-toolbar-item .e-tbar-btn:hover {
  background: rgba(0, 0, 0, 0.12);
  border-color: rgba(0, 0, 0, 0.12);
  border-radius: "";
  color: rgba(0, 0, 0, 0.87);
}

.e-toolbar.e-extended-toolbar .e-toolbar-extended .e-toolbar-item .e-tbar-btn:active {
  background: #bdbdbd;
  border-color: #bdbdbd;
  border-radius: "";
  box-shadow: "";
  color: rgba(0, 0, 0, 0.87);
}

.e-toolbar.e-extended-toolbar .e-toolbar-extended .e-toolbar-item .e-tbar-btn-text {
  color: rgba(0, 0, 0, 0.87);
}

.e-toolbar .e-icons {
  color: rgba(0, 0, 0, 0.54);
}

.e-toolbar .e-toolbar-pop {
  background: #fafafa;
  border: 1px none rgba(0, 0, 0, 0.12);
  box-shadow: 0 2px 2px 1px rgba(0, 0, 0, 0.21);
}

.e-toolbar .e-toolbar-pop .e-toolbar-item .e-tbar-btn-text {
  color: rgba(0, 0, 0, 0.87);
}

.e-toolbar.e-toolpop .e-hor-nav.e-nav-active,
.e-toolbar.e-toolpop .e-hor-nav.e-nav-active:not(.e-expended-nav) {
  background: rgba(0, 0, 0, 0.12);
  border: "";
  border-left: 1px "" rgba(0, 0, 0, 0.12);
  box-shadow: "";
}

.e-toolbar.e-toolpop .e-hor-nav.e-nav-active .e-icons,
.e-toolbar.e-toolpop .e-hor-nav.e-nav-active:not(.e-expended-nav) .e-icons {
  color: rgba(0, 0, 0, 0.87);
}

.e-toolbar .e-tbar-btn {
  background: #fafafa;
  box-shadow: none;
  color: rgba(0, 0, 0, 0.87);
}

.e-toolbar .e-tbar-btn:focus {
  background: rgba(0, 0, 0, 0.12);
  border-color: rgba(0, 0, 0, 0.12);
  border-radius: "";
  color: rgba(0, 0, 0, 0.87);
}

.e-toolbar .e-tbar-btn:hover {
  background: rgba(0, 0, 0, 0.12);
  border-color: rgba(0, 0, 0, 0.12);
  border-radius: "";
  color: rgba(0, 0, 0, 0.87);
}

.e-toolbar .e-toolbar-items {
  background: #fafafa;
}

.e-toolbar .e-toolbar-items .e-toolbar-item.e-overlay {
  background: #fafafa;
}

.e-toolbar .e-toolbar-items .e-toolbar-item.e-overlay .e-tbar-btn-text {
  color: rgba(0, 0, 0, 0.38);
}

.e-toolbar .e-toolbar-items .e-toolbar-item.e-overlay .e-icons {
  color: rgba(0, 0, 0, 0.26);
}

.e-toolbar .e-toolbar-items .e-toolbar-item .e-tbar-btn-text {
  color: rgba(0, 0, 0, 0.87);
}

.e-toolbar .e-toolbar-items .e-toolbar-item.e-separator {
  border: solid rgba(0, 0, 0, 0.12);
  border-width: 0 0.5px 0 0;
}

.e-toolbar.e-rtl .e-hor-nav {
  background: #fafafa;
  border: solid rgba(0, 0, 0, 0.12);
  border-left: 0;
  border-width: 0 1px 0 0;
}

.e-toolbar.e-rtl .e-hor-nav:not(.e-hor-nav.e-nav-active):hover {
  background: rgba(0, 0, 0, 0.12);
  color: rgba(0, 0, 0, 0.87);
}

.e-toolbar .e-hor-nav {
  background: #fafafa;
  border: solid rgba(0, 0, 0, 0.12);
  border-width: 0 0 0 1px;
}

.e-toolbar .e-hor-nav:not(.e-expended-nav)::after {
  background-color: transparent;
  border-radius: 50%;
  border-width: 1px;
  box-sizing: border-box;
  content: '';
  height: 1px;
  left: 50%;
  position: absolute;
  top: 50%;
  visibility: hidden;
  width: 1px;
}

.e-toolbar .e-hor-nav:not(.e-expended-nav):active {
  border: "";
  box-shadow: "";
  color: rgba(0, 0, 0, 0.87);
}

.e-toolbar .e-hor-nav:not(.e-expended-nav):active::after {
  animation: tbar-popup-shadow .6s ease-out 0ms;
  visibility: visible;
}

.e-toolbar .e-hor-nav:not(.e-expended-nav):hover {
  background: rgba(0, 0, 0, 0.12);
  border-left: "";
  color: rgba(0, 0, 0, 0.87);
}

.e-toolbar .e-hor-nav:not(.e-expended-nav):focus {
  background: rgba(0, 0, 0, 0.12);
  border-color: rgba(0, 0, 0, 0.12);
  border-left: "";
  color: rgba(0, 0, 0, 0.87);
}

.e-toolbar .e-tbar-btn:active {
  background: #bdbdbd;
  border-color: #bdbdbd;
  border-radius: "";
  box-shadow: "";
  color: rgba(0, 0, 0, 0.87);
}

/*! component's default definitions and variables */
.e-tooltip-close::before {
  content: '\e7e9';
  font-size: 16px;
}

.e-arrow-tip-inner.e-tip-right::before {
  content: '\e848';
}

.e-arrow-tip-inner.e-tip-top::before {
  content: '\e918';
}

.e-arrow-tip-inner.e-tip-bottom::before {
  content: '\e919';
}

.e-arrow-tip-inner.e-tip-left::before {
  content: '\e84b';
}

/*! tooltip layout */
.e-tooltip-wrap {
  max-width: 350px;
  min-width: 30px;
  padding: 0;
  position: absolute;
  visibility: visible;
  /*! tooltip arrow */
  /*! tooltip sticky mode close icon */
  /*! tooltip content area */
}

.e-tooltip-wrap .e-arrow-tip {
  overflow: hidden;
  position: absolute;
}

.e-tooltip-wrap .e-arrow-tip.e-tip-bottom {
  height: 8px;
  left: 50%;
  top: 100%;
  width: 16px;
}

.e-tooltip-wrap .e-arrow-tip.e-tip-top {
  height: 8px;
  left: 50%;
  top: -9px;
  width: 16px;
}

.e-tooltip-wrap .e-arrow-tip.e-tip-left {
  height: 16px;
  left: -9px;
  top: 48%;
  width: 8px;
}

.e-tooltip-wrap .e-arrow-tip.e-tip-right {
  height: 16px;
  left: 100%;
  top: 50%;
  width: 8px;
}

.e-tooltip-wrap .e-tooltip-close {
  float: right;
  position: absolute;
  right: -9px;
  top: -9px;
}

.e-tooltip-wrap .e-tip-content {
  background-color: inherit;
  height: 100%;
  line-height: 16px;
  overflow-wrap: break-word;
  overflow-x: hidden;
  padding: 3px 6px;
  position: relative;
  white-space: normal;
  width: 100%;
  word-break: break-word;
}

/*! Bigger Style */
.e-bigger .e-tooltip-wrap .e-tip-content,
.e-tooltip-wrap.e-bigger .e-tip-content {
  line-height: 20px;
  padding: 5px 8px;
}

/*! Tooltip theme */
.e-tooltip-wrap {
  border-radius: 2px;
  filter: none;
  opacity: 0.9;
  /*! tooltip arrow */
  /*! tooltip sticky mode close icon */
  /*! tooltip content area */
}

.e-tooltip-wrap.e-popup {
  background-color: #616161;
  border: 1px solid #616161;
}

.e-tooltip-wrap .e-arrow-tip-outer {
  height: 0;
  left: 0;
  position: absolute;
  top: 0;
  width: 0;
}

.e-tooltip-wrap .e-arrow-tip-outer.e-tip-bottom {
  border-left: 8px solid transparent;
  border-right: 8px solid transparent;
  border-top: 8px solid #616161;
}

.e-tooltip-wrap .e-arrow-tip-outer.e-tip-top {
  border-bottom: 8px solid #616161;
  border-left: 8px solid transparent;
  border-right: 8px solid transparent;
}

.e-tooltip-wrap .e-arrow-tip-outer.e-tip-left {
  border-bottom: 8px solid transparent;
  border-right: 8px solid #616161;
  border-top: 8px solid transparent;
}

.e-tooltip-wrap .e-arrow-tip-outer.e-tip-right {
  border-bottom: 8px solid transparent;
  border-left: 8px solid #616161;
  border-top: 8px solid transparent;
}

.e-tooltip-wrap .e-arrow-tip-inner {
  height: 0;
  position: absolute;
  width: 0;
  z-index: 10;
}

.e-tooltip-wrap .e-arrow-tip-inner.e-tip-right, .e-tooltip-wrap .e-arrow-tip-inner.e-tip-left, .e-tooltip-wrap .e-arrow-tip-inner.e-tip-bottom, .e-tooltip-wrap .e-arrow-tip-inner.e-tip-top {
  color: #616161;
  font-family: 'e-icons';
  font-size: 16px;
  font-style: normal;
  font-variant: normal;
  font-weight: normal;
  line-height: 1;
  text-transform: none;
}

.e-tooltip-wrap .e-tooltip-close {
  background-color: #fff;
  border-color: transparent;
  border-radius: 8px;
  color: #616161;
}

.e-tooltip-wrap .e-tooltip-close:hover {
  background-color: #fff;
  color: #616161;
}

.e-tooltip-wrap .e-tip-content {
  color: #fff;
  font-family: "Roboto", "Segoe UI", "GeezaPro", "DejaVu Serif", "sans-serif", "-apple-system", "BlinkMacSystemFont";
  font-size: 11px;
}

/*! bigger style */
.e-bigger .e-tooltip-wrap .e-tip-content,
.e-tooltip-wrap.e-bigger .e-tip-content {
  font-size: 14px;
}

.e-treegrid .e-treegridexpand::before {
  content: "";
}

.e-treegrid .e-treegridcollapse::before {
  content: "";
}

.e-treegrid .e-treegridexpand,
.e-treegrid .e-treegridcollapse {
  cursor: pointer;
  line-height: 2;
}

.e-treegrid .e-treegridexpand::before,
.e-treegrid .e-treegridcollapse::before {
  padding-right: 5px;
}

.e-treegrid .e-treegridexpand {
  font-size: 11px;
}

.e-treegrid .e-treegridcollapse {
  font-size: 10px;
}

@keyframes e-input-ripple {
  100% {
    opacity: 0;
    transform: scale(4);
  }
}

/*! TreeView's default definitions and variables */
.e-treeview .e-list-item div.e-icons.interaction {
  -webkit-transition: -webkit-transform .3s ease-in-out;
  border-radius: 15px;
  transition: transform .3s ease-in-out;
}

.e-treeview .e-list-item .e-icons.e-icon-collapsible {
  transform: rotate(90deg);
}

.e-treeview.e-drag-item.e-rtl .e-icons.e-drop-next {
  transform: rotate(180deg);
}

.e-treeview.e-rtl div.e-icons {
  transform: rotate(180deg);
}

/*! TreeView's material theme wise override definitions and variables */
/*! TreeView icons */
.e-treeview .e-list-item div.e-icons::before {
  content: '\e22f';
}

.e-treeview .e-sibling::before {
  content: '';
}

.e-treeview .e-popup .e-icons::before {
  content: '\e930';
}

.e-treeview.e-drag-item .e-icons.e-drop-in::before {
  content: '\e22c';
}

.e-treeview.e-drag-item .e-icons.e-drop-out::before {
  content: '\e22b';
}

.e-treeview.e-drag-item .e-icons.e-drop-next::before {
  content: '\e22d';
}

.e-treeview.e-drag-item .e-icons.e-no-drop::before {
  content: '\e22a';
}

@keyframes rotation {
  from {
    transform: rotate(0deg);
  }
  to {
    transform: rotate(359deg);
  }
}

.e-bigger .e-treeview .e-fullrow,
.e-treeview.e-bigger .e-fullrow {
  height: 40px;
}

.e-bigger .e-treeview .e-list-text,
.e-treeview.e-bigger .e-list-text {
  line-height: 38px;
  min-height: 38px;
  padding: 0 10px;
}

.e-bigger .e-treeview .e-list-text .e-input-group,
.e-treeview.e-bigger .e-list-text .e-input-group {
  height: 38px;
}

.e-bigger .e-treeview .e-checkbox-wrapper,
.e-treeview.e-bigger .e-checkbox-wrapper {
  margin: 0 0 0 10px;
}

.e-bigger .e-treeview .e-checkbox-wrapper + .e-list-icon,
.e-bigger .e-treeview .e-checkbox-wrapper + .e-list-img,
.e-treeview.e-bigger .e-checkbox-wrapper + .e-list-icon,
.e-treeview.e-bigger .e-checkbox-wrapper + .e-list-img {
  margin: 0 0 0 16px;
}

.e-bigger .e-treeview .e-list-icon,
.e-bigger .e-treeview .e-list-img,
.e-treeview.e-bigger .e-list-icon,
.e-treeview.e-bigger .e-list-img {
  margin: 0 0 0 10px;
}

.e-bigger .e-treeview .e-list-icon + .e-list-icon,
.e-bigger .e-treeview .e-list-icon + .e-list-img,
.e-bigger .e-treeview .e-list-img + .e-list-icon,
.e-bigger .e-treeview .e-list-img + .e-list-img,
.e-treeview.e-bigger .e-list-icon + .e-list-icon,
.e-treeview.e-bigger .e-list-icon + .e-list-img,
.e-treeview.e-bigger .e-list-img + .e-list-icon,
.e-treeview.e-bigger .e-list-img + .e-list-img {
  margin: 0 0 0 10px;
}

.e-bigger .e-treeview .e-icon-collapsible::before,
.e-bigger .e-treeview .e-icon-expandable::before,
.e-treeview.e-bigger .e-icon-collapsible::before,
.e-treeview.e-bigger .e-icon-expandable::before {
  padding: 6px;
}

.e-bigger .e-treeview.e-rtl .e-checkbox-wrapper,
.e-treeview.e-bigger.e-rtl .e-checkbox-wrapper {
  margin: 0 10px 0 0;
}

.e-bigger .e-treeview.e-rtl .e-checkbox-wrapper + .e-list-icon,
.e-bigger .e-treeview.e-rtl .e-checkbox-wrapper + .e-list-img,
.e-treeview.e-bigger.e-rtl .e-checkbox-wrapper + .e-list-icon,
.e-treeview.e-bigger.e-rtl .e-checkbox-wrapper + .e-list-img {
  margin: 0 16px 0 0;
}

.e-bigger .e-treeview.e-rtl .e-list-icon,
.e-bigger .e-treeview.e-rtl .e-list-img,
.e-treeview.e-bigger.e-rtl .e-list-icon,
.e-treeview.e-bigger.e-rtl .e-list-img {
  margin: 0 10px 0 0;
}

.e-bigger .e-treeview.e-rtl .e-list-icon + .e-list-icon,
.e-bigger .e-treeview.e-rtl .e-list-icon + .e-list-img,
.e-bigger .e-treeview.e-rtl .e-list-img + .e-list-icon,
.e-bigger .e-treeview.e-rtl .e-list-img + .e-list-img,
.e-treeview.e-bigger.e-rtl .e-list-icon + .e-list-icon,
.e-treeview.e-bigger.e-rtl .e-list-icon + .e-list-img,
.e-treeview.e-bigger.e-rtl .e-list-img + .e-list-icon,
.e-treeview.e-bigger.e-rtl .e-list-img + .e-list-img {
  margin: 0 10px 0 0;
}

.e-treeview {
  display: block;
  overflow: hidden;
  position: relative;
  white-space: nowrap;
}

.e-treeview > .e-ul {
  overflow: auto;
}

.e-treeview .e-ul {
  margin: 0;
  padding: 0 0 0 24px;
}

.e-treeview li.e-node-collapsed .e-list-item .e-fullrow {
  display: none;
}

.e-treeview .e-list-item {
  list-style: none;
  padding: 2px 0;
}

.e-treeview .e-list-item .e-ul {
  margin: 2px 0 -2px;
  padding: 0 0 0 24px;
}

.e-treeview .e-list-item.e-disable > .e-text-content,
.e-treeview .e-list-item.e-disable > .e-fullrow {
  -ms-touch-action: none;
  filter: alpha(opacity=50);
  opacity: .5;
  pointer-events: none;
  touch-action: none;
}

.e-treeview .e-list-item .e-icons.e-icons-spinner::before {
  content: none;
}

.e-treeview .e-icons .e-spinner-pane {
  position: relative;
}

.e-treeview .e-text-content {
  -moz-user-select: none;
  -ms-user-select: none;
  -webkit-user-select: none;
  user-select: none;
  border: 1px solid;
  cursor: pointer;
  margin: 0;
  padding: 0 0 0 24px;
}

.e-treeview .e-fullrow {
  -moz-user-select: none;
  -ms-user-select: none;
  -webkit-user-select: none;
  user-select: none;
  border: 1px solid;
  box-sizing: border-box;
  cursor: pointer;
  height: 32px;
  left: 0;
  overflow: hidden;
  position: absolute;
  width: 100%;
}

.e-treeview .e-checkbox-wrapper {
  margin: 0 0 0 5px;
  pointer-events: all;
  position: relative;
}

.e-treeview .e-checkbox-wrapper + .e-list-icon,
.e-treeview .e-checkbox-wrapper + .e-list-img {
  margin: 0 0 0 12px;
}

.e-treeview .e-checkbox-wrapper + .e-list-text {
  padding: 0 10px;
}

.e-treeview .e-checkbox-wrapper .e-ripple-container {
  bottom: -7px;
  height: 32px;
  left: -7px;
  right: -7px;
  top: -7px;
  width: 32px;
}

.e-treeview .e-list-text {
  box-sizing: border-box;
  display: inline-block;
  line-height: 30px;
  margin: 0;
  min-height: 30px;
  padding: 0 5px;
  text-decoration: none;
  vertical-align: middle;
}

.e-treeview .e-list-text .e-input-group {
  height: 30px;
  margin-bottom: 0;
  min-width: 150px;
  vertical-align: bottom;
}

.e-treeview .e-list-icon,
.e-treeview .e-list-img {
  display: inline-block;
  height: 18px;
  margin: 0 0 0 5px;
  vertical-align: middle;
  width: 18px;
}

.e-treeview .e-list-icon + .e-list-icon,
.e-treeview .e-list-icon + .e-list-img,
.e-treeview .e-list-img + .e-list-icon,
.e-treeview .e-list-img + .e-list-img {
  margin: 0 0 0 10px;
}

.e-treeview .e-list-icon + .e-list-text,
.e-treeview .e-list-img + .e-list-text {
  padding: 0 10px;
}

.e-treeview .e-icon-collapsible,
.e-treeview .e-icon-expandable {
  display: inline-block;
  height: 24px;
  margin: 0 0 0 -24px;
  vertical-align: middle;
  width: 24px;
}

.e-treeview .e-icon-collapsible::before,
.e-treeview .e-icon-expandable::before {
  display: inline-block;
  padding: 7px;
}

.e-treeview .e-load {
  animation: rotation .5s infinite linear;
}

.e-treeview .e-sibling {
  border-radius: 10px;
  height: 6px;
  margin-top: -5px;
  position: absolute;
  width: 6px;
  z-index: 2;
}

.e-treeview .e-text-content + .e-sibling {
  margin-top: -1px;
}

.e-treeview .e-sibling::before {
  left: 6px;
  top: 3px;
  height: 1px;
  position: absolute;
  width: 144px;
  z-index: 2;
}

.e-treeview .e-popup {
  -moz-user-select: none;
  -ms-user-select: none;
  -webkit-user-select: none;
  user-select: none;
  font-weight: normal;
  position: absolute;
  z-index: 99999;
}

.e-treeview .e-popup .e-content {
  border-radius: 4px;
  border-style: solid;
  border-width: 1px;
  font-size: 14px;
  padding: 4px;
}

.e-treeview .e-popup .e-icons {
  border: 1px solid transparent;
  cursor: pointer;
  display: inline-block;
  height: 26px;
  line-height: 18px;
  padding: 4px;
  width: 26px;
}

.e-treeview .e-popup .e-downtail::before,
.e-treeview .e-popup .e-downtail::after {
  border: 10px solid transparent;
  content: '';
  height: 0;
  left: 8px;
  position: absolute;
  width: 0;
}

.e-treeview .e-popup .e-downtail::after {
  bottom: -18px;
}

.e-treeview.e-fullrow-wrap .e-text-content {
  pointer-events: none;
  position: relative;
}

.e-treeview.e-fullrow-wrap .e-icon-collapsible,
.e-treeview.e-fullrow-wrap .e-icon-expandable,
.e-treeview.e-fullrow-wrap .e-input,
.e-treeview.e-fullrow-wrap .e-list-url {
  pointer-events: auto;
}

.e-treeview.e-drag-item {
  overflow: visible;
  z-index: 10000;
}

.e-treeview.e-drag-item .e-text-content {
  float: left;
}

.e-treeview.e-drag-item .e-icon-collapsible::before,
.e-treeview.e-drag-item .e-icon-expandable::before {
  padding: 6px;
}

.e-treeview.e-drag-item .e-drop-count {
  border: 1px solid;
  border-radius: 15px;
  box-sizing: content-box;
  font-size: 13px;
  line-height: normal;
  margin-left: -12px;
  min-width: 12px;
  padding: 3px 5px 4px;
  position: absolute;
  text-align: center;
  top: -10px;
}

.e-treeview.e-dragging .e-text-content,
.e-treeview.e-dragging .e-fullrow {
  cursor: default;
}

.e-treeview.e-rtl .e-ul {
  padding: 0 24px 0 0;
}

.e-treeview.e-rtl .e-list-item .e-ul {
  padding: 0 24px 0 0;
}

.e-treeview.e-rtl .e-text-content {
  padding: 0 24px 0 0;
}

.e-treeview.e-rtl .e-checkbox-wrapper {
  margin: 0 5px 0 0;
}

.e-treeview.e-rtl .e-checkbox-wrapper + .e-list-icon,
.e-treeview.e-rtl .e-checkbox-wrapper + .e-list-img {
  margin: 0 12px 0 0;
}

.e-treeview.e-rtl .e-list-icon,
.e-treeview.e-rtl .e-list-img {
  margin: 0 5px 0 0;
}

.e-treeview.e-rtl .e-list-icon + .e-list-icon,
.e-treeview.e-rtl .e-list-icon + .e-list-img,
.e-treeview.e-rtl .e-list-img + .e-list-icon,
.e-treeview.e-rtl .e-list-img + .e-list-img {
  margin: 0 10px 0 0;
}

.e-treeview.e-rtl .e-icon-collapsible,
.e-treeview.e-rtl .e-icon-expandable {
  margin: 0 -24px 0 0;
}

.e-treeview.e-rtl .e-sibling::before {
  right: 6px;
  top: 3px;
}

.e-treeview.e-rtl.e-drag-item .e-text-content {
  float: right;
}

.e-treeview.e-rtl.e-drag-item .e-drop-count {
  margin-right: -12px;
}

.e-bigger .e-treeview .e-list-text,
.e-treeview.e-bigger .e-list-text {
  font-size: 14px;
}

.e-bigger .e-treeview .e-icon-collapsible::before,
.e-bigger .e-treeview .e-icon-expandable::before,
.e-treeview.e-bigger .e-icon-collapsible::before,
.e-treeview.e-bigger .e-icon-expandable::before {
  font-size: 12px;
}

.e-treeview {
  -webkit-tap-highlight-color: transparent;
}

.e-treeview .e-text-content,
.e-treeview .e-fullrow {
  border-color: transparent;
}

.e-treeview .e-list-text {
  color: rgba(0, 0, 0, 0.87);
  font-size: 13px;
}

.e-treeview .e-list-icon,
.e-treeview .e-list-img {
  font-size: 18px;
}

.e-treeview .e-icon-collapsible,
.e-treeview .e-icon-expandable {
  color: rgba(0, 0, 0, 0.54);
}

.e-treeview .e-icon-collapsible::before,
.e-treeview .e-icon-expandable::before {
  font-size: 10px;
}

.e-treeview .e-list-item.e-active,
.e-treeview .e-list-item.e-hover {
  background: transparent;
}

.e-treeview .e-list-item.e-hover > .e-text-content {
  color: rgba(0, 0, 0, 0.87);
}

.e-treeview .e-list-item.e-hover > .e-text-content .e-list-text {
  color: rgba(0, 0, 0, 0.87);
}

.e-treeview .e-list-item.e-hover > .e-text-content .e-icon-collapsible,
.e-treeview .e-list-item.e-hover > .e-text-content .e-icon-expandable {
  color: rgba(0, 0, 0, 0.54);
}

.e-treeview .e-list-item.e-active > .e-text-content {
  color: #e3165b;
}

.e-treeview .e-list-item.e-active > .e-text-content .e-list-text {
  color: #e3165b;
}

.e-treeview .e-list-item.e-active > .e-text-content .e-icon-collapsible,
.e-treeview .e-list-item.e-active > .e-text-content .e-icon-expandable {
  color: rgba(0, 0, 0, 0.54);
}

.e-treeview .e-list-item.e-active.e-hover > .e-text-content {
  color: #e3165b;
}

.e-treeview .e-list-item.e-active.e-hover > .e-text-content .e-list-text {
  color: #e3165b;
}

.e-treeview .e-list-item.e-active.e-hover > .e-text-content .e-icon-collapsible,
.e-treeview .e-list-item.e-active.e-hover > .e-text-content .e-icon-expandable {
  color: rgba(0, 0, 0, 0.54);
}

.e-treeview .e-list-item.e-editing.e-active > .e-text-content,
.e-treeview .e-list-item.e-editing.e-hover > .e-text-content {
  color: rgba(0, 0, 0, 0.87);
}

.e-treeview .e-list-item.e-editing.e-active > .e-text-content .e-list-text,
.e-treeview .e-list-item.e-editing.e-hover > .e-text-content .e-list-text {
  color: rgba(0, 0, 0, 0.87);
}

.e-treeview .e-list-item.e-editing.e-active > .e-text-content .e-icon-collapsible,
.e-treeview .e-list-item.e-editing.e-active > .e-text-content .e-icon-expandable,
.e-treeview .e-list-item.e-editing.e-hover > .e-text-content .e-icon-collapsible,
.e-treeview .e-list-item.e-editing.e-hover > .e-text-content .e-icon-expandable {
  color: rgba(0, 0, 0, 0.54);
}

.e-treeview .e-list-item.e-hover > .e-fullrow {
  background-color: #f5f5f5;
  border-color: #f5f5f5;
}

.e-treeview .e-list-item.e-active > .e-fullrow {
  background-color: #eee;
  border-color: #eee;
}

.e-treeview .e-list-item.e-active.e-hover > .e-fullrow {
  background-color: #e0e0e0;
  border-color: #e0e0e0;
}

.e-treeview .e-list-item.e-editing.e-active > .e-fullrow,
.e-treeview .e-list-item.e-editing.e-hover > .e-fullrow {
  background-color: transparent;
  border-color: transparent;
}

.e-treeview .e-list-item.e-disable .e-list-text {
  color: rgba(0, 0, 0, 0.54);
}

.e-treeview .e-list-item.e-disable .e-icon-collapsible,
.e-treeview .e-list-item.e-disable .e-icon-expandable {
  color: rgba(0, 0, 0, 0.87);
}

.e-treeview .e-sibling {
  background: #e3165b;
}

.e-treeview .e-sibling::before {
  background: rgba(0, 0, 0, 0.54);
}

.e-treeview .e-popup .e-content {
  background-color: #fff;
  border-color: #eee;
}

.e-treeview .e-popup.e-select .e-icons {
  border-color: #eee;
}

.e-treeview .e-popup .e-downtail::before {
  border-top-color: #eee;
}

.e-treeview .e-popup .e-downtail::after {
  border-top-color: #fff;
}

.e-treeview:not(.e-fullrow-wrap) .e-list-item.e-hover > .e-text-content {
  background-color: #f5f5f5;
  border-color: #f5f5f5;
}

.e-treeview:not(.e-fullrow-wrap) .e-list-item.e-active > .e-text-content {
  background-color: #eee;
  border-color: #eee;
}

.e-treeview:not(.e-fullrow-wrap) .e-list-item.e-active.e-hover > .e-text-content {
  background-color: #e0e0e0;
  border-color: #e0e0e0;
}

.e-treeview:not(.e-fullrow-wrap) .e-list-item.e-editing.e-active > .e-text-content,
.e-treeview:not(.e-fullrow-wrap) .e-list-item.e-editing.e-hover > .e-text-content {
  background-color: transparent;
  border-color: transparent;
}

.e-treeview.e-fullrow-wrap .e-text-content {
  border-color: transparent;
}

.e-treeview.e-drag-item {
  background-color: #eee;
  font-family: "Roboto", "Segoe UI", "GeezaPro", "DejaVu Serif", "sans-serif", "-apple-system", "BlinkMacSystemFont";
}

.e-treeview.e-drag-item .e-icon-collapsible::before,
.e-treeview.e-drag-item .e-icon-expandable::before {
  font-size: 12px;
}

.e-treeview.e-drag-item .e-list-text {
  color: rgba(0, 0, 0, 0.54);
}

.e-treeview.e-drag-item .e-icons {
  color: rgba(0, 0, 0, 0.54);
}

.e-treeview.e-drag-item .e-drop-count {
  background-color: #e3165b;
  border-color: #fff;
  color: #fff;
}

.e-treeview.e-rtl .e-sibling {
  background: #e3165b;
}

/*! component's default definitions and variables */
@keyframes material-spinner-rotate {
  0% {
    transform: rotate(0deg);
  }
  100% {
    transform: rotate(360deg);
  }
}

@keyframes fabric-spinner-rotate {
  0% {
    transform: rotate(0deg);
  }
  100% {
    transform: rotate(360deg);
  }
}

.e-upload .e-upload-files .e-file-remove-btn.e-icons::before {
  content: '\e945';
}

.e-upload .e-upload-files .e-icons.e-file-pause-btn::before {
  content: '\e326';
}

.e-upload .e-upload-files .e-icons.e-file-reload-btn::before {
  content: '\e99d';
}

.e-upload .e-upload-files .e-icons.e-file-play-btn::before {
  content: '\e324';
}

.e-upload .e-upload-files .e-file-delete-btn.e-icons::before {
  content: '\e94a';
}

.e-upload .e-upload-files .e-file-abort-btn.e-icons::before {
  content: '\e974';
}

.e-upload .e-upload-files .e-icons.e-msie::before {
  position: relative;
  right: 10px;
}

.e-upload .e-upload-files .e-icons.e-file-abort-icon.e-msie::before {
  right: 12px;
}

.e-bigger .e-upload {
  width: 100%;
}

.e-bigger .e-upload .e-file-select-wrap {
  padding: 20px 0 20px 16px;
}

.e-bigger .e-upload .e-file-select-wrap .e-file-drop {
  font-size: 15px;
  margin-left: 16px;
}

.e-bigger .e-upload .e-upload-files .e-upload-file-list {
  font-size: 15px;
  line-height: normal;
  min-height: 100px;
}

.e-bigger .e-upload .e-upload-files .e-upload-file-list .e-file-container {
  margin-left: 16px;
  top: 0;
}

.e-bigger .e-upload .e-upload-files .e-upload-file-list .e-file-container .e-file-name {
  font-size: 15px;
  padding-top: 16px;
}

.e-bigger .e-upload .e-upload-files .e-upload-file-list .e-file-container .e-file-size {
  font-size: 12px;
  padding: 10px 0;
}

.e-bigger .e-upload .e-upload-files .e-upload-file-list .e-file-container .e-file-type {
  font-size: 15px;
  padding-top: 16px;
  top: initial;
}

.e-bigger .e-upload .e-upload-files .e-upload-file-list .e-file-container .e-file-status {
  font-size: 12px;
  padding-bottom: 16px;
}

.e-bigger .e-upload .e-upload-files .e-upload-file-list .e-file-container .e-upload-progress-wrap {
  height: 10px;
}

.e-bigger .e-upload .e-upload-files .e-upload-file-list .e-file-container .e-upload-progress-wrap .e-progress-inner-wrap {
  height: 3px;
  width: 98%;
}

.e-bigger .e-upload .e-upload-files .e-upload-file-list .e-file-container .e-upload-progress-wrap .e-progress-inner-wrap .e-upload-progress-bar {
  height: 3px;
}

.e-bigger .e-upload .e-upload-files .e-upload-file-list .e-file-container .e-upload-progress-wrap .e-progress-bar-text {
  font-size: 11px;
  right: 10px;
  top: -33px;
}

.e-bigger .e-upload .e-upload-files .e-file-remove-btn.e-icons,
.e-bigger .e-upload .e-upload-files .e-file-delete-btn.e-icons,
.e-bigger .e-upload .e-upload-files .e-file-abort-btn.e-icons,
.e-bigger .e-upload .e-upload-files .e-file-reload-btn.e-icons,
.e-bigger .e-upload .e-upload-files .e-file-play-btn.e-icons,
.e-bigger .e-upload .e-upload-files .e-file-pause-btn.e-icons {
  font-size: 12px;
  margin: 16px;
  margin-top: -20px;
  padding: 20px;
  top: 50%;
}

.e-bigger .e-upload .e-upload-files .e-file-remove-btn.e-msie.e-icons,
.e-bigger .e-upload .e-upload-files .e-file-delete-btn.e-msie.e-icons,
.e-bigger .e-upload .e-upload-files .e-file-abort-btn.e-msie.e-icons,
.e-bigger .e-upload .e-upload-files .e-file-reload-btn.e-msie.e-icons,
.e-bigger .e-upload .e-upload-files .e-file-play-btn.e-msie.e-icons,
.e-bigger .e-upload .e-upload-files .e-file-pause-btn.e-msie.e-icons {
  padding: 20px 17px 20px 26px;
}

.e-bigger .e-upload .e-upload-files .e-file-play-btn.e-icons,
.e-bigger .e-upload .e-upload-files .e-file-reload-btn.e-icons,
.e-bigger .e-upload .e-upload-files .e-file-pause-btn.e-icons {
  right: 45px;
}

.e-bigger .e-upload .e-upload-files .e-file-delete-btn.e-icons {
  font-size: 13px;
}

.e-bigger .e-upload .e-upload-files .e-file-abort-btn.e-icons {
  font-size: 18px;
}

.e-bigger .e-upload .e-upload-actions .e-btn {
  margin-left: 16px;
}

.e-bigger .e-upload .e-upload-actions .e-file-upload-btn,
.e-bigger .e-upload .e-upload-actions .e-file-clear-btn {
  margin: 15px;
}

.e-bigger .e-upload.e-rtl .e-file-select-wrap {
  padding: 20px 16px 20px 0;
}

.e-bigger .e-upload.e-rtl .e-file-select-wrap .e-control.e-btn {
  margin-right: 0;
}

.e-bigger .e-upload.e-rtl .e-file-select-wrap .e-file-drop {
  margin-right: 16px;
}

.e-bigger .e-upload.e-rtl .e-upload-files .e-upload-file-list .e-file-container {
  margin-left: 60px;
  margin-right: 16px;
}

.e-bigger .e-upload.e-rtl .e-upload-files .e-upload-file-list .e-file-container .e-file-status {
  top: 54px;
}

.e-bigger .e-upload.e-rtl .e-upload-files .e-upload-file-list .e-file-container .e-upload-progress-wrap .e-progress-bar-text {
  left: 10px;
  right: initial;
}

.e-bigger .e-upload.e-rtl .e-upload-files .e-upload-file-list .e-file-remove-btn.e-icons,
.e-bigger .e-upload.e-rtl .e-upload-files .e-upload-file-list .e-file-delete-btn.e-icons,
.e-bigger .e-upload.e-rtl .e-upload-files .e-upload-file-list .e-file-abort-btn.e-icons,
.e-bigger .e-upload.e-rtl .e-upload-files .e-upload-file-list .e-file-reload-btn.e-icons,
.e-bigger .e-upload.e-rtl .e-upload-files .e-upload-file-list .e-file-play-btn.e-icons,
.e-bigger .e-upload.e-rtl .e-upload-files .e-upload-file-list .e-file-pause-btn.e-icons {
  left: 0;
  margin-left: 16px;
  margin-right: 16px;
  padding: 20px;
  top: 50%;
}

.e-bigger .e-upload.e-rtl .e-upload-files .e-upload-file-list .e-file-remove-btn.e-msie.e-icons,
.e-bigger .e-upload.e-rtl .e-upload-files .e-upload-file-list .e-file-delete-btn.e-msie.e-icons,
.e-bigger .e-upload.e-rtl .e-upload-files .e-upload-file-list .e-file-abort-btn.e-msie.e-icons,
.e-bigger .e-upload.e-rtl .e-upload-files .e-upload-file-list .e-file-reload-btn.e-msie.e-icons,
.e-bigger .e-upload.e-rtl .e-upload-files .e-upload-file-list .e-file-play-btn.e-msie.e-icons,
.e-bigger .e-upload.e-rtl .e-upload-files .e-upload-file-list .e-file-pause-btn.e-msie.e-icons {
  padding: 20px 17px 20px 26px;
}

.e-bigger .e-upload.e-rtl .e-upload-files .e-upload-file-list .e-file-play-btn.e-icons,
.e-bigger .e-upload.e-rtl .e-upload-files .e-upload-file-list .e-file-reload-btn.e-icons,
.e-bigger .e-upload.e-rtl .e-upload-files .e-upload-file-list .e-file-pause-btn.e-icons {
  left: 41px;
}

.e-upload {
  width: 100%;
}

.e-upload .e-file-select-wrap {
  padding: 16px 0 16px 12px;
}

.e-upload .e-file-select-wrap .e-file-select,
.e-upload .e-file-select-wrap .e-file-select .e-uploader {
  display: inline-block;
  width: 0;
}

.e-upload .e-file-select-wrap .e-file-select .e-uploader {
  opacity: 0;
}

.e-upload .e-file-select-wrap .e-file-drop {
  font-family: "Roboto", "Segoe UI", "GeezaPro", "DejaVu Serif", "sans-serif", "-apple-system", "BlinkMacSystemFont";
  font-size: 14px;
  margin-left: 12px;
}

.e-upload .e-upload-files {
  list-style-type: none;
  margin: 0;
  padding: 0;
}

.e-upload .e-upload-files .e-upload-file-list {
  font-family: "Roboto", "Segoe UI", "GeezaPro", "DejaVu Serif", "sans-serif", "-apple-system", "BlinkMacSystemFont";
  font-size: 14px;
  height: 100%;
  line-height: normal;
  min-height: 90px;
  position: relative;
}

.e-upload .e-upload-files .e-upload-file-list .e-file-container {
  display: block;
  height: 100%;
  margin-left: 12px;
  margin-right: 90px;
  min-height: 35px;
  position: relative;
  top: 3px;
}

.e-upload .e-upload-files .e-upload-file-list .e-file-container .e-file-name {
  float: left;
  font-family: "Roboto", "Segoe UI", "GeezaPro", "DejaVu Serif", "sans-serif", "-apple-system", "BlinkMacSystemFont";
  font-size: 14px;
  max-width: 75%;
  overflow: hidden;
  padding-top: 12px;
  position: relative;
  text-overflow: ellipsis;
  top: 0;
  white-space: nowrap;
}

.e-upload .e-upload-files .e-upload-file-list .e-file-container .e-file-name::before {
  content: attr(data-tail);
  float: right;
}

.e-upload .e-upload-files .e-upload-file-list .e-file-container .e-file-type {
  display: block;
  font-family: "Roboto", "Segoe UI", "GeezaPro", "DejaVu Serif", "sans-serif", "-apple-system", "BlinkMacSystemFont";
  font-size: 14px;
  padding-top: 12px;
}

.e-upload .e-upload-files .e-upload-file-list .e-file-container .e-file-size {
  display: block;
  font-size: 11px;
  padding: 8px 0;
}

.e-upload .e-upload-files .e-upload-file-list .e-file-container .e-file-status {
  display: block;
  font-family: "Roboto", "Segoe UI", "GeezaPro", "DejaVu Serif", "sans-serif", "-apple-system", "BlinkMacSystemFont";
  font-size: 11px;
  padding-bottom: 12px;
}

.e-upload .e-upload-files .e-upload-file-list .e-file-container .e-file-status.e-upload-progress {
  display: none;
}

.e-upload .e-upload-files .e-upload-file-list .e-file-container .e-upload-progress-wrap {
  display: block;
  height: 8px;
  padding-bottom: 6px;
  padding-top: 6px;
  position: absolute;
  width: 98%;
}

.e-upload .e-upload-files .e-upload-file-list .e-file-container .e-upload-progress-wrap .e-progress-inner-wrap {
  border-radius: 0;
  display: block;
  height: 2px;
  width: 100%;
}

.e-upload .e-upload-files .e-upload-file-list .e-file-container .e-upload-progress-wrap .e-progress-inner-wrap .e-upload-progress-bar {
  border-radius: 0;
  display: inherit;
  height: 2px;
}

.e-upload .e-upload-files .e-upload-file-list .e-file-container .e-upload-progress-wrap .e-progress-bar-text {
  float: right;
  font-family: "Roboto", "Segoe UI", "GeezaPro", "DejaVu Serif", "sans-serif", "-apple-system", "BlinkMacSystemFont";
  font-size: 11px;
  position: relative;
  right: 6px;
  top: -27px;
}

.e-upload .e-upload-files .e-file-remove-btn.e-icons,
.e-upload .e-upload-files .e-file-delete-btn.e-icons,
.e-upload .e-upload-files .e-file-abort-btn.e-icons,
.e-upload .e-upload-files .e-file-pause-btn.e-icons,
.e-upload .e-upload-files .e-file-play-btn.e-icons,
.e-upload .e-upload-files .e-file-reload-btn.e-icons {
  -ms-flex-align: center;
      align-items: center;
  cursor: pointer;
  display: -ms-inline-flexbox;
  display: inline-flex;
  font-size: 11px;
  height: 18px;
  -ms-flex-pack: center;
      justify-content: center;
  margin: 0 12px;
  margin-top: -18px;
  padding: 18px;
  position: absolute;
  right: 0;
  top: 50%;
  vertical-align: middle;
  width: 18px;
}

.e-upload .e-upload-files .e-file-remove-btn.e-icons.e-upload-progress,
.e-upload .e-upload-files .e-file-delete-btn.e-icons.e-upload-progress,
.e-upload .e-upload-files .e-file-abort-btn.e-icons.e-upload-progress,
.e-upload .e-upload-files .e-file-pause-btn.e-icons.e-upload-progress,
.e-upload .e-upload-files .e-file-play-btn.e-icons.e-upload-progress,
.e-upload .e-upload-files .e-file-reload-btn.e-icons.e-upload-progress {
  cursor: default;
}

.e-upload .e-upload-files .e-file-remove-btn.e-msie.e-icons,
.e-upload .e-upload-files .e-file-delete-btn.e-msie.e-icons,
.e-upload .e-upload-files .e-file-abort-btn.e-msie.e-icons,
.e-upload .e-upload-files .e-file-pause-btn.e-msie.e-icons,
.e-upload .e-upload-files .e-file-play-btn.e-msie.e-icons,
.e-upload .e-upload-files .e-file-reload-btn.e-msie.e-icons {
  padding: 18px 13px 18px 23px;
}

.e-upload .e-upload-files .e-file-pause-btn.e-icons,
.e-upload .e-upload-files .e-file-play-btn.e-icons,
.e-upload .e-upload-files .e-file-reload-btn.e-icons {
  right: 36px;
}

.e-upload .e-upload-files .e-file-remove-btn.e-icons:not(.e-upload-progress):hover,
.e-upload .e-upload-files .e-file-delete-btn.e-icons:not(.e-upload-progress):hover,
.e-upload .e-upload-files .e-file-pause-btn.e-icons:not(.e-upload-progress):hover,
.e-upload .e-upload-files .e-file-play-btn.e-icons:not(.e-upload-progress):hover,
.e-upload .e-upload-files .e-file-reload-btn.e-icons:hover,
.e-upload .e-upload-files .e-file-abort-btn.e-icons:not(.e-disabled):hover,
.e-upload .e-upload-files .e-clear-icon-focus {
  background-color: rgba(0, 0, 0, 0.12);
  border-color: transparent;
  border-radius: 50%;
  box-shadow: 0 0 0 transparent;
}

.e-upload .e-upload-files .e-file-delete-btn.e-icons {
  font-size: 11px;
  opacity: 1;
}

.e-upload .e-upload-files .e-file-abort-btn.e-icons {
  font-size: 15px;
  opacity: 1;
}

.e-upload .e-file-select-wrap .e-btn,
.e-upload .e-upload-actions .e-btn {
  font-family: "Roboto", "Segoe UI", "GeezaPro", "DejaVu Serif", "sans-serif", "-apple-system", "BlinkMacSystemFont";
}

.e-upload .e-upload-actions {
  position: relative;
  text-align: right;
}

.e-upload .e-upload-actions .e-file-upload-btn,
.e-upload .e-upload-actions .e-file-clear-btn {
  margin: 12px;
}

.e-upload.e-rtl .e-file-select-wrap {
  padding: 16px 12px 16px 0;
}

.e-upload.e-rtl .e-file-select-wrap .e-control.e-btn {
  margin-right: 10;
}

.e-upload.e-rtl .e-file-select-wrap .e-file-drop {
  margin-left: 60px;
  margin-right: 12px;
  position: relative;
}

.e-upload.e-rtl .e-upload-actions {
  text-align: left;
}

.e-upload.e-rtl .e-upload-files .e-upload-file-list .e-file-container {
  height: 100%;
  margin-left: 60px;
  margin-right: 12px;
  position: relative;
}

.e-upload.e-rtl .e-upload-files .e-upload-file-list .e-file-container .e-rtl-container {
  direction: ltr;
  float: right;
  width: 100%;
}

.e-upload.e-rtl .e-upload-files .e-upload-file-list .e-file-container .e-file-type {
  float: right;
}

.e-upload.e-rtl .e-upload-files .e-upload-file-list .e-file-container .e-file-name {
  float: right;
}

.e-upload.e-rtl .e-upload-files .e-upload-file-list .e-file-container .e-file-size {
  direction: ltr;
  float: right;
  position: relative;
  text-align: right;
  width: 100%;
}

.e-upload.e-rtl .e-upload-files .e-upload-file-list .e-file-container .e-upload-progress-wrap {
  float: right;
  position: initial;
  top: 46px;
  width: 89%;
}

.e-upload.e-rtl .e-upload-files .e-upload-file-list .e-file-container .e-upload-progress-wrap .e-progress-bar-text {
  float: left;
  right: -8px;
  top: -25px;
}

.e-upload.e-rtl .e-upload-files .e-upload-file-list .e-file-remove-btn.e-icons,
.e-upload.e-rtl .e-upload-files .e-upload-file-list .e-file-delete-btn.e-icons,
.e-upload.e-rtl .e-upload-files .e-upload-file-list .e-file-abort-btn.e-icons,
.e-upload.e-rtl .e-upload-files .e-upload-file-list .e-file-reload-btn.e-icons,
.e-upload.e-rtl .e-upload-files .e-upload-file-list .e-file-pause-btn.e-icons,
.e-upload.e-rtl .e-upload-files .e-upload-file-list .e-file-play-btn.e-icons {
  left: 0;
  margin-left: 12px;
  margin-right: 12px;
  right: auto;
  top: 50%;
}

.e-upload.e-rtl .e-upload-files .e-upload-file-list .e-file-reload-btn.e-icons {
  left: 36px;
  right: auto;
}

.e-upload.e-rtl .e-upload-files .e-upload-file-list .e-file-play-btn.e-icons,
.e-upload.e-rtl .e-upload-files .e-upload-file-list .e-file-reload-btn.e-icons,
.e-upload.e-rtl .e-upload-files .e-upload-file-list .e-file-pause-btn.e-icons {
  left: 36px;
}

.e-upload.e-disabled .e-file-drop {
  color: rgba(0, 0, 0, 0.38);
}

.e-upload.e-disabled .e-upload-files .e-upload-file-list .e-file-container .e-file-name,
.e-upload.e-disabled .e-upload-files .e-upload-file-list .e-file-container .e-file-type,
.e-upload.e-disabled .e-upload-files .e-upload-file-list .e-file-container .e-file-size,
.e-upload.e-disabled .e-upload-files .e-upload-file-list .e-file-container .e-file-status {
  color: rgba(0, 0, 0, 0.38);
}

.e-upload {
  border: 1px solid rgba(0, 0, 0, 0.12);
}

.e-upload .e-file-drop {
  color: rgba(0, 0, 0, 0.87);
}

.e-upload .e-upload-files {
  border-top: 1px solid rgba(0, 0, 0, 0.12);
}

.e-upload .e-upload-files .e-upload-file-list {
  border-bottom: 1px solid rgba(0, 0, 0, 0.12);
}

.e-upload .e-upload-files .e-upload-file-list .e-file-container .e-file-name {
  color: rgba(0, 0, 0, 0.87);
}

.e-upload .e-upload-files .e-upload-file-list .e-file-container .e-file-type {
  color: rgba(0, 0, 0, 0.87);
}

.e-upload .e-upload-files .e-upload-file-list .e-file-container .e-file-size {
  color: rgba(0, 0, 0, 0.54);
}

.e-upload .e-upload-files .e-upload-file-list .e-file-container .e-file-status {
  color: rgba(0, 0, 0, 0.87);
}

.e-upload .e-upload-files .e-upload-file-list .e-file-container .e-file-status.e-upload-success {
  color: #22b24b;
}

.e-upload .e-upload-files .e-upload-file-list .e-file-container .e-file-status.e-upload-fails {
  color: #f44336;
}

.e-upload .e-upload-files .e-upload-file-list .e-file-container .e-file-status.e-validation-fails {
  color: #f44336;
}

.e-upload .e-upload-files .e-upload-file-list .e-file-container .e-progress-inner-wrap {
  background-color: #e0e0e0;
}

.e-upload .e-upload-files .e-upload-file-list .e-file-container .e-progress-inner-wrap .e-upload-progress-bar.e-upload-progress {
  background: #e3165b;
}

.e-upload .e-upload-files .e-upload-file-list .e-file-container .e-progress-inner-wrap .e-upload-progress-bar.e-upload-success {
  background: #22b24b;
}

.e-upload .e-upload-files .e-upload-file-list .e-file-container .e-progress-inner-wrap .e-upload-progress-bar.e-upload-failed {
  background: #f44336;
}

.e-upload .e-upload-files .e-upload-file-list .e-file-container .e-progress-bar-text {
  color: rgba(0, 0, 0, 0.87);
}

.e-upload .e-upload-files .e-file-remove-btn.e-icons,
.e-upload .e-upload-files .e-file-delete-btn.e-icons,
.e-upload .e-upload-files .e-file-reload-btn.e-icons,
.e-upload .e-upload-files .e-file-abort-btn.e-icons,
.e-upload .e-upload-files .e-file-pause-btn.e-icons,
.e-upload .e-upload-files .e-file-play-btn.e-icons {
  color: #000;
}

.e-upload .e-upload-files .e-file-remove-btn.e-icons:hover,
.e-upload .e-upload-files .e-file-delete-btn.e-icons:hover,
.e-upload .e-upload-files .e-file-reload-btn.e-icons:hover,
.e-upload .e-upload-files .e-file-abort-btn.e-icons:hover,
.e-upload .e-upload-files .e-file-pause-btn.e-icons:hover,
.e-upload .e-upload-files .e-file-play-btn.e-icons:hover {
  color: #000;
}

.e-upload-drag-hover {
  outline: 2px dashed #9e9e9e;
}

/*! component's default definitions and variables */
/*! component's theme wise override definitions and variables */
@keyframes vscroll-popup-shadow {
  0% {
    border-color: rgba(255, 255, 255, 0.5);
    box-shadow: 0 0 0 0 rgba(255, 255, 255, 0.5);
  }
  100% {
    box-shadow: 0 0 0 200px rgba(255, 255, 255, 0.12);
  }
}

/*! vscroll icons */
.e-vscroll.e-scroll-device .e-nav-up-arrow::before {
  content: '\e85e';
}

.e-vscroll.e-scroll-device .e-nav-down-arrow::before {
  content: '\e84f';
}

.e-vscroll .e-nav-up-arrow::before {
  content: '\e910';
  line-height: normal;
}

.e-vscroll .e-nav-down-arrow::before {
  content: '\e916';
  line-height: normal;
}

/*! v-scroll layout */
.e-bigger .e-vscroll:not(.e-scroll-device),
.e-vscroll.e-bigger:not(.e-scroll-device) {
  padding: 24px 0;
}

.e-bigger .e-vscroll.e-scroll-device,
.e-vscroll.e-bigger.e-scroll-device {
  padding-right: 24px;
}

.e-bigger .e-vscroll.e-rtl.e-scroll-device,
.e-vscroll.e-bigger.e-rtl.e-scroll-device {
  padding-left: 24px;
  padding-right: initial;
}

.e-bigger .e-vscroll .e-icons,
.e-vscroll.e-bigger .e-icons {
  font-size: 18px;
}

.e-bigger .e-vscroll.e-rtl .e-scroll-overlay.e-scroll-down-overlay,
.e-vscroll.e-bigger.e-rtl .e-scroll-overlay.e-scroll-down-overlay {
  left: 24px;
}

.e-bigger .e-vscroll .e-scroll-overlay.e-scroll-down-overlay,
.e-vscroll.e-bigger .e-scroll-overlay.e-scroll-down-overlay {
  right: 24px;
}

.e-bigger .e-vscroll .e-scroll-nav,
.e-vscroll.e-bigger .e-scroll-nav {
  height: 24px;
}

.e-vscroll {
  display: block;
  position: relative;
  width: inherit;
}

.e-vscroll.e-rtl.e-scroll-device {
  padding-left: 40px;
  padding-right: initial;
}

.e-vscroll.e-rtl.e-scroll-device .e-scroll-nav {
  transform: skewX(-16deg) translateX(-6px);
}

.e-vscroll.e-rtl.e-scroll-device .e-scroll-overlay.e-scroll-down-overlay {
  left: 56px;
  right: auto;
  transform: skewX(-16deg) translateX(-6px);
}

.e-vscroll.e-rtl.e-scroll-device .e-scroll-overlay.e-scroll-up-overlay {
  left: auto;
  right: 0;
}

.e-vscroll:not(.e-scroll-device) {
  padding: 0 16px;
}

.e-vscroll.e-scroll-device {
  padding-right: 40px;
}

.e-vscroll.e-scroll-device .e-scroll-nav {
  transform: skewX(-16deg) translateX(6px);
  width: 56px;
  z-index: 1001;
}

.e-vscroll.e-scroll-device .e-scroll-nav .e-nav-arrow {
  font-size: 14px;
  transform: skewX(16deg);
}

.e-vscroll.e-scroll-device .e-scroll-overlay {
  opacity: 0.5;
  pointer-events: none;
  position: absolute;
  top: 0;
  z-index: 100;
}

.e-vscroll.e-scroll-device .e-scroll-overlay.e-scroll-down-overlay {
  left: auto;
  right: 56px;
  transform: skewX(-16deg) translateX(6px);
}

.e-vscroll.e-scroll-device .e-scroll-overlay.e-scroll-up-overlay {
  left: 0;
  right: auto;
}

.e-vscroll > * {
  height: inherit;
}

.e-vscroll .e-vscroll-content {
  display: inline-block;
  height: auto;
  position: relative;
  -ms-touch-action: none;
      touch-action: none;
  width: 100%;
}

.e-vscroll .e-vscroll-content > * {
  pointer-events: auto;
}

.e-vscroll.e-rtl .e-scroll-nav.e-scroll-up-nav {
  left: auto;
  right: 0;
}

.e-vscroll.e-rtl .e-scroll-nav.e-scroll-down-nav {
  left: 0;
  right: auto;
}

.e-vscroll .e-scroll-nav {
  -ms-flex-align: center;
      align-items: center;
  cursor: pointer;
  display: -ms-flexbox;
  display: flex;
  height: 40px;
  overflow: hidden;
  position: absolute;
  width: 100%;
}

.e-vscroll .e-scroll-nav.e-scroll-up-nav {
  top: 0;
}

.e-vscroll .e-scroll-nav.e-scroll-down-nav {
  bottom: 0;
}

.e-vscroll .e-scroll-nav.e-ie-align {
  display: table;
}

.e-vscroll .e-nav-arrow {
  position: relative;
}

.e-vscroll .e-nav-arrow.e-icons {
  display: table-cell;
  text-align: center;
  vertical-align: middle;
  width: 100%;
}

/*! v-scroll theme */
.e-vscroll .e-icons {
  color: rgba(0, 0, 0, 0.54);
}

.e-vscroll.e-rtl.e-scroll-device .e-scroll-nav.e-scroll-right-nav {
  border-color: rgba(0, 0, 0, 0.12);
  box-shadow: 4px 0 8px 0 rgba(0, 0, 0, 0.06);
}

.e-vscroll.e-scroll-device .e-scroll-nav.e-scroll-right-nav {
  background-color: #fafafa;
  border-color: rgba(0, 0, 0, 0.12);
  border-width: 1px;
  box-shadow: -4px 0 8px 0 rgba(0, 0, 0, 0.06);
}

.e-vscroll.e-scroll-device .e-scroll-nav.e-scroll-right-nav .e-nav-arrow {
  color: #e3165b;
}

.e-vscroll .e-scroll-overlay {
  background-color: transparent;
  background-repeat: repeat-x;
}

.e-vscroll .e-scroll-overlay.e-scroll-up-overlay {
  background-image: linear-gradient(-270deg, #fafafa 0%, rgba(250, 250, 250, 0) 100%);
}

.e-vscroll .e-scroll-overlay.e-scroll-down-overlay {
  background-image: linear-gradient(-270deg, rgba(250, 250, 250, 0) 0%, #fafafa 100%);
}

.e-vscroll.e-rtl .e-scroll-nav {
  background: #fafafa;
}

.e-vscroll.e-rtl .e-scroll-nav:hover {
  background: rgba(0, 0, 0, 0.12);
  border: "";
  border-color: rgba(0, 0, 0, 0.12);
  color: #000;
}

.e-vscroll:not(.e-scroll-device) .e-scroll-nav:hover {
  background: rgba(0, 0, 0, 0.12);
  border: "";
  color: #000;
}

.e-vscroll:not(.e-scroll-device) .e-scroll-nav:focus {
  background: rgba(0, 0, 0, 0.12);
  border: "";
  border-color: rgba(0, 0, 0, 0.12);
  color: #000;
}

.e-vscroll:not(.e-scroll-device) .e-scroll-nav:active {
  background: #bdbdbd;
  border: "";
  box-shadow: "";
  color: #000;
}

.e-vscroll .e-scroll-nav {
  background: #fafafa;
}

.e-vscroll .e-scroll-nav.e-scroll-up-nav {
  border-bottom: 1px solid rgba(0, 0, 0, 0.12);
}

.e-vscroll .e-scroll-nav.e-scroll-down-nav {
  border-top: 1px solid rgba(0, 0, 0, 0.12);
}

.e-vscroll .e-scroll-nav::after {
  background-color: transparent;
  border-radius: 50%;
  border-width: 1px;
  box-sizing: border-box;
  content: '';
  height: 1px;
  left: 50%;
  position: absolute;
  top: 50%;
  visibility: hidden;
  width: 1px;
}

.e-vscroll .e-scroll-nav:active::after {
  animation: vscroll-popup-shadow .6s ease-out 0ms;
  visibility: visible;
}
